DDPG_Critic2.pth (torch_old, 184350 bytes, 5 tensors)

fcs1.weight f4 [256, 48]
0.028690485 -0.074132584 0.00091455545 -0.024369845 0.059474852 0.11146434 0.003784353 0.0374027
-0.0070543513 -0.05564934 0.0039759455 -0.06401277 -0.011136587 -0.09010699 -0.004233063 0.042574752
-0.016250568 -0.03906579 0.0023124998 0.023251489 -0.05758761 -0.33047807 -0.012783631 0.07099937
-0.09592536 0.15879425 -0.027933458 0.080917954 0.0042684316 0.12618376 0.022376506 0.058483135
-0.0027393845 0.28102952 0.0030150926 0.06887154 -0.02122497 -0.01240263 -0.011418098 -0.025226811
-0.07297679 0.2632169 -0.0012854332 -0.037071522 0.025976721 -0.35242128 -0.025516983 -0.009589434
-0.032072518 -0.06869646 0.008020116 -0.01717892 -0.05291941 0.22890995 -0.0066001974 0.017162375
0.004253747 0.023636691 -0.026615847 0.044063155 -0.07143423 0.07503157 0.024677215 -0.03997474
0.0019564154 -0.03376784 -0.011652722 -0.030728335 0.10968625 -0.28620395 0.017953727 0.0360069
-0.036570698 -0.043223333 -0.029061921 0.012624574 0.10987865 0.22565348 0.028464193 -0.05456651
0.057901025 -0.01556554 -0.00038945983 -0.043031484 0.07900636 0.09706225 -0.00064547826 -0.00061654835
0.0071349638 0.013674957 0.008979667 -0.017584775 -0.15839058 -0.2529659 -0.0009078293 0.041917257
0.018163849 -0.01001262 0.008862287 -0.029563827 0.099456914 0.27261114 -0.010431802 0.02453507
-0.00059465284 -0.008630962 -0.015993953 -0.031529427 0.01192553 0.031764127 0.019728847 0.030727264
-0.010872283 0.015388089 -0.047357887 -0.012101261 -0.10826721 -0.36691833 0.048620764 0.005066666
0.007691193 0.08888696 -0.004881715 0.010941984 -0.083026364 0.27998134 0.005890773 -0.009478168
-0.013247337 0.10611823 -0.03954097 -0.0041581267 0.0043476387 0.0233032 0.040524565 0.005686141
0.027452862 0.21295588 0.0012677684 0.14638685 0.040743187 -0.3569212 -0.0028957808 0.113167904
-0.010689372 0.113271065 0.009593319 -0.010437493 0.091736466 0.09758866 -0.024715563 0.01962788
0.03125262 0.21445557 -0.020073328 -0.05912517 -0.007347308 0.09654435 0.021030873 0.04662439
-0.01793974 0.17982276 0.031793866 0.013077692 -0.19332634 0.06383135 -0.03565452 0.027721
0.014090976 0.057270214 -0.004829253 -0.013565592 0.0105379075 0.09138568 -0.01683881 0.045140028
0.08479656 0.16618545 0.014910266 0.033599384 0.044615574 0.022784546 -0.019231308 0.012739116
-0.015184163 0.2302596 0.015317324 0.21217254 0.09139604 0.07909115 -0.016003491 0.2085876
0.02336944 -0.133837 -0.029212285 -0.019419355 -0.039927486 -0.07162478 0.022908084 -0.09706891
0.08150126 -0.12679777 0.00523281 -0.011657776 -0.0886594 0.0102085015 0.028976 -0.02173009
0.01760719 -0.17108427 0.031085389 -0.09920069 0.035738174 0.03032579 0.023988687 -0.031576857
-0.033451203 -0.2131191 0.0036400843 0.13059856 0.06462305 -0.13071251 0.014160131 0.06377369
-0.01529068 -0.24148163 -0.030406836 -0.03913552 0.04631349 -0.011366541 -0.038241025 -0.030712888
0.11672321 -0.15751168 0.020144543 -0.014161936 -0.03769465 0.033388987 -0.002315228 -0.026579905
0.009719938 -0.12855092 0.026146803 -0.017292386 -0.0023362273 -0.12769777 -0.027961338 0.022697898
-0.019396752 -0.16038784 -0.008461239 -0.061714426 0.06565058 0.10873111 0.0064447974 0.03511985
00000000: 4f08 eb3c d3d2 97bd c7be 6f3a 45a3 c7bc
00000010: e79b 733d 6a47 e43d e802 783b 9333 193d
00000020: 3028 e7bb 90f0 63bd a648 823b 2119 83bd
00000030: 3b76 36bc 038a b8bd 82b5 8abb dd62 2e3d
00000040: e91f 85bc 7303 20bd 4f8d 173b e879 be3c
00000050: fce0 6bbd 6c34 a9be 6f72 51bc 1e68 913d
00000060: 8474 c4bd f69a 223e b5d4 e4bc 50b8 a53d
00000070: 33de 8b3b 5136 013e ef4e b73c 038c 6f3d
00000080: 3f87 33bb 1ae3 8f3e dc98 453b 860c 8d3d
00000090: fddf adbc 6734 4bbc f912 3bbc 75a8 cebc
000000a0: db74 95bd 5ec4 863e fb7b a8ba 4fd8 17bd
000000b0: 22cd d43c 9070 b4be fe08 d1bc 001d 1dbc
000000c0: 795e 03bd bbb0 8cbd ce66 033c ceba 8cbc
000000d0: 06c2 58bd 5f67 6a3e 7846 d8bb 1c98 8c3c
000000e0: 0463 8b3b bca1 c13c 7a09 dabc 917b 343d
000000f0: 1c4c 92bd 27aa 993d df27 ca3c 8ebc 23bd
00000100: 3437 003b 2650 0abd 0feb 3ebc fdb9 fbbc
00000110: 2fa3 e03d 5389 92be b213 933c f97b 133d
00000120: 28cb 15bd f30a 31bd 4413 eebc 4dd7 4e3c
00000130: 0f08 e13d b511 673e bd2d e93c 2281 5fbd
00000140: a029 6d3d 9b06 7fbc 6a30 ccb9 c841 30bd
00000150: 16ce a13d 93c8 c63d 5035 29ba dc9f 21ba
00000160: 6acc e93b ed0c 603c 741f 133c f20d 90bc
00000170: 2431 22be bf84 81be 65fb 6dba 6eb1 2b3d
00000180: 5acc 943c f90b 24bc 2033 113c d72f f2bc
00000190: 11b0 cb3d b093 8b3e 26ea 2abc c5fd c83c
000001a0: 7ae2 1bba e168 0dbc c005 83bc 0025 01bd
000001b0: 4c63 433c 1a1b 023d 649e a13c beb7 fb3c
000001c0: a921 32bc 531e 7c3c 58fa 41bd 5e44 46bc
000001d0: 33bb ddbd b8dc bbbe 9126 473d 4606 a63b
000001e0: 6706 fc3b 5e0a b63d cbf6 9fbb 0246 333c
000001f0: ba09 aabd b759 8f3e 6307 c13b 514a 1bbc
00000200: 5c0b 59bc 8454 d93d b6f5 21bd e540 88bb
00000210: a376 8e3b 5ae6 be3c 16fd 253d cf52 ba3b
00000220: d3e4 e03c 1b11 5a3e 402b a63a 6fe6 153e
00000230: 54e2 263d 60be b6be 24c7 3dbb 93c4 e73d
00000240: 7a22 2fbc a9fa e73d 4c2d 1d3c 0502 2bbc
00000250: 54e0 bb3d 90dc c73d 4b78 cabc a6ca a03c
00000260: bf02 003d 3e9a 5b3e d270 a4bc 3c2d 72bd
00000270: b0c1 f0bb 0bb9 c53d f048 ac3c 37f9 3e3d
00000280: 5df6 92bc 7523 383e 493a 023d d143 563c
00000290: 57f7 45be 03ba 823d 790a 12bd 2717 e33c
000002a0: d6dd 663c 2c94 6a3d b63e 9ebb 3742 5ebc
000002b0: 30a7 2c3c 6a28 bb3d 8bf1 89bc c0e4 383d
000002c0: d2a9 ad3d 852c 2a3e 304a 743c 829f 093d
000002d0: d2be 363d a8a6 ba3c fa8a 9dbc bab7 503c
000002e0: ffc6 78bc 2cc9 6b3e 83f5 7a3c c243 593e
000002f0: d92d bb3d 8afa a13d c119 83bc fd97 553e
00000300: 4571 bf3c 910c 09be 9a4e efbc 5715 9fbc
00000310: 018b 23bd 03b0 92bd bca9 bb3c 11cc c6bd
00000320: 22ea a63d 46d7 01be fe77 ab3b 4200 3fbc
00000330: 0f93 b5bd 8f41 273c 145f ed3c 4d03 b2bc
00000340: f43c 903c b730 2fbe c9a6 fe3c bb29 cbbd
00000350: 3162 123d cb6d f83c ec83 c43c bc56 01bd
00000360: 2104 09bd e53b 5abe 7b8e 6e3b a1bb 053e
00000370: 1759 843d 80d9 05be e5ff 673c c89b 823d
00000380: c385 7abc f646 77be c217 f9bc 914c 20bd
00000390: 37b3 3d3d ba3a 3abc 9fa2 1cbd 9899 fbbc
000003a0: 940c ef3d be4a 21be 2b06 a53c 7707 68bc
000003b0: b565 1abd e4c2 083d 15bb 17bb 1abe d9bc
000003c0: 6040 1f3c daa2 03be d231 d63c c3a8 8dbc
000003d0: 641b 19bb 34c3 02be 2d0f e5bc f1f0 b93c
000003e0: f0e5 9ebc b63c 24be 02a1 0abc 44c8 7cbd
000003f0: d073 863d 6bae de3d e12e d33b d5d9 0f3d

fcs1.bias f4 [256]
0.043700963 0.15564126 0.061397415 -0.21469684 -0.044268034 -0.03516038 -0.039444942 -0.019096794
0.018814716 0.045148972 -0.22900975 0.13215795 0.34652373 -0.06381952 -0.12134638 -0.23285796
0.030322248 -0.07279951 -0.029391889 0.17258945 -0.013925446 -0.09818978 0.08736747 -0.02685582
0.08187768 -0.025065282 -0.102222 0.17559834 -0.024405593 -0.19766545 -0.1302929 -0.03882341
0.0048463373 -0.030341676 0.15431058 -0.2136734 0.18125053 -0.014238827 -0.31266358 -0.012825833
-0.05677806 -0.3083704 0.011522915 0.08655009 0.07316206 -0.01956389 0.1507577 -0.11527551
0.024798106 0.3222605 -0.18275969 -0.03240099 -0.016317612 0.0035335661 -0.15614457 0.098937236
0.052936766 0.10179338 0.09854036 0.23216125 0.11028574 -0.2141913 -0.2056687 -0.11383123
0.015896546 -0.110919915 -0.032224346 0.002894971 -0.3308274 -0.06843696 -0.14985694 -0.020639447
-0.044981394 0.19363485 0.13961226 0.005087829 -0.10597569 0.00870784 -0.1620107 -0.04340337
0.022545192 0.23925814 0.28491947 -0.15839429 0.25763023 -0.15377562 -0.27506322 0.03808149
0.034071036 0.2905496 -0.037794035 0.07246396 0.14357711 -0.09506985 -0.19300267 -0.31392682
0.16775784 0.18212092 -0.038295798 -0.13658541 0.16638204 -0.15448017 0.12454356 0.13475432
0.09703778 0.27495232 -0.28366035 -0.032691665 0.21376956 -0.16739964 -0.12933245 0.066733
-0.084156595 -0.0789047 -0.06695403 0.0019423504 -0.0045031174 0.37700686 -0.15253541 -0.3083028
-0.22524104 -0.12063763 -0.29191244 -0.1559088 -0.035702195 0.03881824 -0.11585519 0.2618622
-0.035855666 0.06154573 0.023891455 -0.26214775 -0.117227845 -0.28903663 -0.13567148 0.10666768
-0.14886647 -0.047189526 0.02756448 -0.17994173 -0.05607633 -0.14780876 -0.17733526 0.007970444
0.094834 -0.06824725 0.09181974 0.0012601686 0.09248579 0.075351596 0.030468406 -0.0056165215
0.07571468 0.062960394 -0.14302981 -0.30212754 -0.078419104 -0.18450592 0.10893432 -0.025842616
-0.054560184 0.19997446 -0.11779957 -0.031059625 -0.021259012 0.046960026 0.010047456 0.017319217
0.16157833 -0.089636184 0.16439429 0.0064193383 0.037035216 0.16471305 -0.053585343 -0.08859315
0.08106662 -0.12322439 0.16579144 -0.14132701 0.034435157 -0.021935998 0.109050855 -0.15690018
-0.09399164 -0.15391056 0.22812243 -0.033215947 -0.006776087 0.16186643 0.063640304 0.07808421
0.012939042 0.16824046 -0.10772433 -0.10991191 -0.22607292 -0.18039246 0.0012950958 -0.09034938
0.0783052 -0.028728599 0.04079695 -0.16678523 0.1073239 0.28977925 0.1236546 -0.10307534
0.23948999 0.22377278 -0.060967352 -0.21869802 -0.11328111 0.15774946 0.14146216 0.21666573
-0.10667521 0.0054196306 -0.15156956 -0.0065555153 0.056125056 0.030891633 -0.16810742 0.093199
0.13636857 0.038527433 -0.102650486 0.02886969 -0.017448476 -0.09856028 -0.094005674 0.08120345
-0.026525585 -0.052945565 -0.029127525 0.07957925 0.0941283 0.13956308 0.264933 -0.06598334
0.054364603 -0.22550899 0.15622821 0.15368319 -0.25416335 0.09607119 -0.04705359 -0.4225157
-0.06962967 0.09113719 -0.21081008 -0.12053026 -0.057950947 -0.24513388 -0.023900134 -0.22892165
00000000: c8ff 323d 6c60 1f3e db7b 7b3d 7dd9 5bbe
00000010: 6652 35bd 5504 10bd 0591 21bd e170 9cbc
00000020: 5221 9a3c 21ee 383d 8881 6abe 6a54 073e
00000030: 8f6b b13e cfb3 82bd 7384 f8bd 5172 6ebe
00000040: 5d66 f83c e917 95bd 42c7 f0bc 4abb 303e
00000050: 8e27 64bc b917 c9bd b7ed b23d bd00 dcbc
00000060: 7caf a73d b555 cdbc c559 d1bd 0dd0 333e
00000070: 3dee c7bc d068 4abe 816b 05be 4c05 1fbd
00000080: 06ce 9e3b 1b8f f8bc 9803 1e3e 33cd 5abe
00000090: bd99 393e f849 69bc 7115 a0be 7123 52bc
000000a0: 1c90 68bd bae2 9dbe 9cca 3c3c 2c41 b13d
000000b0: fdd5 953d 7344 a0bc 3a60 1a3e 9115 ecbd
000000c0: 6625 cb3c 54ff a43e 5b25 3bbe e7b6 04bd
000000d0: 83ac 85bc 6793 673b 5de4 1fbe 9b9f ca3d
000000e0: 39d4 583d 0c79 d03d 87cf c93d aebb 6d3e
000000f0: 7ddd e13d f754 5bbe d19a 52be 5920 e9bd
00000100: 7939 823c fb29 e3bd adfd 03bd 8eb9 3d3b
00000110: 3562 a9be ad28 8cbd 1974 19be 0f14 a9bc
00000120: 693e 38bd 3748 463e 84f6 0e3e ceb7 a63b
00000130: c809 d9bd 54ab 0e3c 22e6 25be bbc7 31bd
00000140: b2b0 b83c 1600 753e f7e0 913e 1d32 22be
00000150: 1ce8 833e 5b77 1dbe 16d5 8cbe 56fb 1b3d
00000160: 128e 0b3d ebc2 943e ebcd 1abd fc67 943d
00000170: e105 133e fbb3 c2bd 7ea2 45be 04bb a0be
00000180: b6c8 2b3e e87d 3a3e 0edc 1cbd 0cdd 0bbe
00000190: 0e60 2a3e 0d30 1ebe b210 ff3d 09fd 093e
000001a0: bebb c63d 8dc6 8c3e ee3b 91be b2e7 05bd
000001b0: 68e6 5a3e d06a 2bbe ba6f 04be 50ab 883d
000001c0: 4b5a acbd ca98 a1bd 321f 89bd 7796 fe3a
000001d0: e38e 93bb 0b07 c13e 3e32 1cbe ddd9 9dbe
000001e0: 96a5 66be dd10 f7bd 8c75 95be 8ea6 1fbe
000001f0: 773c 12bd e0ff 1e3d 7c45 edbd cd12 863e
00000200: 64dd 12bd 6017 7c3d 03b8 c33c 3b38 86be
00000210: 2715 f0bd 9cfc 93be 77ed 0abe 9674 da3d
00000220: 7470 18be ce49 41bd e8ce e13c a542 38be
00000230: 4bb0 65bd 2e5b 17be 6097 35be 7796 023c
00000240: 5438 c23d 37c5 8bbd fd0b bc3d 3e2c a53a
00000250: 3169 bd3d f051 9a3d e198 f93c cc0a b8bb
00000260: 4c10 9b3d 61f1 803d 6876 12be 76b0 9abe
00000270: 329a a0bd 1fef 3cbe f518 df3d e5b3 d3bc
00000280: 807a 5fbd 1bc6 4c3e e740 f1bd c170 febc
00000290: 6127 aebc 2859 403d 169e 243c 08e1 8d3c
000002a0: ca74 253e 2d93 b7bd fa56 283e 5059 d23b
000002b0: 3db2 173d 8aaa 283e 4e7c 5bbd 5370 b5bd
000002c0: 4206 a63d 125d fcbd 3bc5 293e 07b8 10be
000002d0: e10b 0d3d 1fb3 b3bc 0e56 df3d 71aa 20be
000002e0: b07e c0bd bb9a 1dbe ed98 693e 720d 08bd
000002f0: f009 debb 50c0 253e d955 823d 9dea 9f3d
00000300: 47fe 533c 3a47 2c3e 939e dcbd 7f19 e1bd
00000310: a97f 67be cdb8 38be 34c0 a93a 1909 b9bd
00000320: 7a5e a03d 3d58 ebbc b41a 273d bfc9 2abe
00000330: a2cc db3d f25d 943e 9f3e fd3d 2a19 d3bd
00000340: dd3c 753e b124 653e e7b8 79bd 60f2 5fbe
00000350: edff e7bd 1389 213e 75db 103e 9fdd 5d3e
00000360: 8878 dabd 2897 b13b 0d35 1bbe a6cf d6bb
00000370: 63e3 653d 7310 fd3c 5a24 2cbe 1edf be3d
00000380: 34a4 0b3e f1ce 1d3d 6b3a d2bd 2180 ec3c
00000390: 1bf0 8ebc f9d9 c9bd 0c86 c0bd ff4d a63d
000003a0: 2f4c d9bc 73dd 58bd d99c eebc 72fa a23d
000003b0: 57c6 c03d a0e9 0e3e 4ca5 873e 4622 87bd
000003c0: 6bad 5e3d d4eb 66be 4afa 1f3e 205f 1d3e
000003d0: b321 82be f9c0 c43d 44bb 40bd fa53 d8be
000003e0: 009a 8ebd 23a6 ba3d 99de 57be 92d8 f6bd
000003f0: f95d 6dbd 6004 7bbe 37ca c3bc 706a 6abe

fc2.weight f4 [128, 258]
-0.022541773 -0.26507223 -0.09250205 -0.0115677 -0.08458067 0.10954338 0.07349662 0.12541261
-0.07835368 0.10515997 0.021323806 -0.1270951 -0.001982452 0.12994893 -0.10147892 0.11352288
-0.10299713 -0.008966841 -0.011590296 -0.025667213 -0.044338156 0.059361298 -0.032317076 -0.01820508
0.010498837 -0.029357772 0.0069901343 -0.08685036 0.08802088 -0.10367785 0.032201793 -0.060807854
0.002065221 -0.046300184 0.025715144 0.04551394 -0.07575916 0.07589929 -0.024791922 0.032418173
0.0749544 0.059439488 0.10250719 -0.121020146 -0.04274237 0.10087598 -0.004828405 0.14276914
0.043450586 0.083171636 -0.0066074957 0.04262836 0.022783853 -0.012548028 0.09737002 -0.014965248
0.000993523 -0.073521025 -0.077280596 0.050894 0.03319477 0.010710202 0.036571644 0.0011424738
-0.22728585 -0.027807698 0.034967534 -0.11628412 0.0030900019 -0.02454818 -0.081378795 0.033479754
-0.049013678 -0.010671688 0.008094113 -0.022032155 0.010002068 0.066865176 -0.019623859 -0.08391703
0.026591467 -0.00052878534 0.047172137 0.016071321 -0.007489225 0.010534096 0.02274197 -0.03336545
-0.30967432 0.0510199 -0.4077885 0.009766736 -0.08267105 0.02599785 0.026737498 0.054861788
0.0052525345 0.026325375 -0.07886094 0.051864907 -0.16133772 0.034996994 -0.014756599 -0.15293376
-0.056225862 -0.30511257 0.024122568 0.0035588408 -0.1627346 0.07017164 -0.11725807 0.035859417
0.041994337 0.05617495 -0.058468394 0.0047078207 -0.021401532 0.09256238 -0.010821361 -0.17972265
0.084913805 0.12088715 -0.013936255 0.029848214 0.015690014 0.015999947 -0.07312408 -0.010408108
0.030829646 0.09747126 -0.29500985 0.08229421 -0.06664403 -0.03284886 0.03525845 -0.02774074
-0.0015910949 -0.034388386 0.06830494 -0.07763836 -0.08273403 -0.06899126 -0.053783517 -0.20678337
-0.16723976 0.014601093 -0.016863372 0.027760312 -0.07576543 -0.07337165 -0.07452597 -0.17011492
0.11563903 0.011890151 0.13221765 0.10206754 0.10314824 -0.13326716 -0.04199989 -0.0012875935
0.025273772 -0.035746265 -0.014903227 -0.030535754 -0.039143525 0.08053934 -0.016457837 -0.094691016
0.12344413 0.034113433 -0.0032879224 0.033041563 -0.0017596298 0.14487082 -0.03805324 0.069855124
-0.0040040724 0.024231246 -0.0026312042 -0.30497232 0.029424286 0.04024977 -0.037479624 0.042696282
0.0056224153 -0.025571024 -0.022497974 -0.10044733 0.016166827 -0.077918865 0.007842422 0.0147379385
0.04545949 -0.26616248 0.073138215 0.02072747 0.08819932 0.18407989 0.045357488 0.07530918
-0.039447676 0.045270752 0.072629765 -0.0075908536 0.019726323 0.09908139 -0.039940406 0.08272863
0.009671503 0.054930937 0.037869673 0.092024095 -0.05488585 0.044655733 0.014780473 0.04166525
0.04463709 0.053866804 0.054742623 0.096644126 -0.003010353 -0.05506504 -0.040961184 0.046459477
-0.08415593 0.028054731 0.017552633 -0.15445796 0.012719616 -0.013768498 0.06636383 -0.033128668
0.016613636 -0.008726972 0.018984577 0.14926773 -0.15935095 0.06345329 -0.19877984 0.024546316
0.032508 0.0034994828 -0.004750303 -0.07769624 0.14406848 -0.08078829 -0.01217693 0.09558014
-0.042827427 0.03385734 0.019959543 0.09390965 -0.022896772 -0.10170257 0.08701445 0.019358436
00000000: 86a9 b8bc 8cb7 87be b771 bdbd 7386 3dbc
00000010: a138 adbd 4858 e03d 6585 963d 2a6c 003e
00000020: e577 a0bd 1c5e d73d 43af ae3c 3825 02be
00000030: 07ec 01bb 5511 053e 2ed4 cfbd af7e e83d
00000040: 29f0 d2bd a8e9 12bc 3ae5 3dbc 0c44 d2bc
00000050: ed9b 35bd d524 733d e95e 04bd d222 95bc
00000060: 5003 2c3c b67f f0bc 7f0d e53b 9ade b1bd
00000070: 4b44 b43d 0d55 d4bd 07e6 033d a811 79bd
00000080: a958 073b 43a5 3dbd 91a8 d23c d36c 3a3d
00000090: 9e27 9bbd 1671 9b3d 6e18 cbbc ebc8 043d
000000a0: b181 993d d276 733d 4aef d13d 69d9 f7bd
000000b0: a012 2fbd 1198 ce3d 9937 9ebb 1332 123e
000000c0: 3ef9 313d e455 aa3d b183 d8bb 139b 2e3d
000000d0: 34a5 ba3c 3e96 4dbc ef69 c73d cd30 75bc
000000e0: 1a39 823a 3192 96bd 4a45 9ebd 3a76 503d
000000f0: 3df7 073d d879 2f3c 26cc 153d 0fbf 953a
00000100: 9fbd 68be f8cc e3bc 1e3a 0f3d 5e26 eebd
00000110: a181 4a3b 4419 c9bc eda9 a6bd 1122 093d
00000120: 91c2 48bd 4ed8 2ebc 2c9d 043c c77c b4bc
00000130: b7df 233c 9cf0 883d 37c2 a0bc b1dc abbd
00000140: 59d6 d93c 2f9e 0aba 9237 413d 01a8 833c
00000150: 2c68 f5bb 3397 2c3c 5e4d ba3c 36aa 08bd
00000160: a28d 9ebe 3efa 503d a7c9 d0be a904 203c
00000170: 714f a9bd 71f9 d43c 9908 db3c c1b6 603d
00000180: 741d ac3b 50a8 d73c d881 a1bd 4c70 543d
00000190: b735 25be 0259 0f3d aac5 71bc ab9a 1cbe
000001a0: 174d 66bd b737 9cbe b19c c53c 713b 693b
000001b0: e6a3 26be 26b6 8f3d 0025 f0bd 53e1 123d
000001c0: 4102 2c3d b417 663d 8e7c 6fbd 1044 9a3b
000001d0: 4452 afbc 5891 bd3d 144c 31bc 3709 38be
000001e0: 4ae7 ad3d af93 f73d e454 64bc 3e84 f43c
000001f0: 5888 803c 5212 833c 14c2 95bd c586 2abc
00000200: 748e fc3c 039f c73d 880b 97be de89 a83d
00000210: aa7c 88bd 878c 06bd 2a6b 103d 8c40 e3bc
00000220: 498c d0ba d6da 0cbd 76e3 8b3d dc00 9fbd
00000230: 7670 a9bd 4a4b 8dbd 1b4c 5cbd 05bf 53be
00000240: e640 2bbe 6c39 6f3c 0e25 8abc 9869 e33c
00000250: e82a 9bbd e043 96bd 12a1 98bd 9b32 2ebe
00000260: 28d4 ec3d e8ce 423c 1064 073e c908 d13d
00000270: 623f d33d 3077 08be 1408 2cbd 78c4 a8ba
00000280: f10a cf3c ad6a 12bd aa2c 74bc 1e26 fabc
00000290: f654 20bd cff1 a43d 96d2 86bc 5ded c1bd
000002a0: 47d0 fc3d 87ba 0b3d 2f7a 57bb 9756 073d
000002b0: 61a3 e6ba 0459 143e b7dd 1bbd 3410 8f3d
000002c0: 9834 83bb 9b80 c63c 4870 2cbb 5525 9cbe
000002d0: 330b f13c f1dc 243d 3c84 19bd 4ce2 2e3d
000002e0: 3d3c b83b 537a d1bc ac4d b8bc 54b7 cdbd
000002f0: 4b70 843c ed93 9fbd 817d 003c 6577 713c
00000300: bb33 3a3d 7346 88be 7dc9 953d a8cc a93c
00000310: d8a1 b43d 707f 3c3e c6c8 393d b33b 9a3d
00000320: e393 21bd d36d 393d eabe 943d b2bc f8bb
00000330: 1999 a13c 2feb ca3d 8d98 23bd a16d a93d
00000340: 3975 1e3c 43ff 603d 3b1d 1b3d 2177 bc3d
00000350: fccf 60bd eee8 363d cc29 723c 2ea9 2a3d
00000360: 62d5 363d 70a3 5c3d cd39 603d 5bed c53d
00000370: 5849 45bb e18b 61bd eac6 27bd 4b4c 3e3d
00000380: f259 acbd 09d3 e53c 8aca 8f3c 3a2a 1ebe
00000390: f065 503c 4495 61bc c2e9 873d edb1 07bd
000003a0: 5219 883c 93fb 0ebc 8b85 9b3c a4d9 183e
000003b0: e52c 23be ccf3 813d f18c 4bbe 5b15 c93c
000003c0: 1c27 053d 9457 653b 6ea8 9bbb 351f 9fbd
000003d0: b086 133e 5574 a5bd bf81 47bc 85bf c33d
000003e0: d06b 2fbd ffad 0a3d 3282 a33c b453 c03d
000003f0: 0392 bbbc 7049 d0bd a234 b23d 9595 9e3c

fc2.bias f4 [128]
0.11788133 0.020294376 -0.0049036113 0.003664467 -0.06759063 -0.025325032 -0.048288926 0.027058568
0.029189993 -0.05261285 -0.08363873 -0.018133089 -0.06926225 0.05108528 0.02509303 0.033123005
0.03884235 -0.005631472 0.032381997 -0.097921826 0.09607148 0.0045450144 -0.08629783 -0.0055070086
-0.093902946 -0.01896153 -0.017061224 -0.00071857986 -0.048377834 -0.018789172 0.08713889 0.10919219
0.083106875 0.045412056 -0.10438103 -0.00037065742 -0.028286241 0.0051878225 -0.033671666 -0.0048541115
0.074387416 0.06528094 0.024071489 -0.013670182 -0.010424954 -0.013379173 -0.01330775 0.06662812
-0.059121277 0.017485553 -0.0012255181 0.00795845 -0.0058920416 -0.05509745 0.008599529 0.003756263
-0.031866703 -0.14064597 0.06582273 -0.065045394 -0.059868228 0.05053221 0.07048255 0.0057747047
0.039039742 -0.025375625 -0.090516664 -0.06759347 -0.057728004 -0.018646987 0.013273731 -0.014919973
0.05555777 -0.011212862 -0.038719185 0.0604292 -0.06752342 -0.028954707 0.03228272 -0.068845086
-0.034490168 0.13649921 -0.029279537 0.2383268 -9.9578145e-05 0.036165856 -0.0020863246 -0.063225575
0.012353281 0.0035325997 -0.028916124 0.0891372 0.10441639 0.016365293 0.023696778 0.014164478
0.022278046 0.18342331 -0.029959343 0.02263827 0.045706347 0.048439723 0.050140265 -0.1949664
-0.00011594006 0.03751245 -0.050839357 -0.069487326 -0.06192746 -0.039323036 -0.05620227 -0.062144488
-0.04736062 0.01686471 0.032673188 0.024274912 0.08443588 -0.06848872 -0.07805115 -0.11043692
0.020852081 -0.045438454 -0.0452017 -0.02669044 -0.046050515 -0.05944411 0.079950996 -0.067849785
00000000: c46b f13d 6440 a63c 79ae a0bb 8e27 703b
00000010: f56c 8abd 7176 cfbc 9cca 45bd eea9 dd3c
00000020: da1f ef3c 9280 57bd c84a abbd d88b 94bc
00000030: 5ed9 8dbd cc3e 513d e68f cd3c fdab 073d
00000040: 2819 1f3d 3688 b8bb fca2 043d 3d8b c8bd
00000050: 20c1 c43d 58ee 943b ebbc b0bd 2374 b4bb
00000060: 3050 c0bd 3655 9bbc fbc3 8bbc 145f 3cba
00000070: d627 46bd c0eb 99bc e075 b23d 28a0 df3d
00000080: f033 aa3d fe01 3a3d b9c5 d5bd cc54 c2b9
00000090: 8cb8 e7bc 9cfe a93b 4deb 09bd 3d0f 9fbb
000000a0: 6e58 983d 03b2 853d 9231 c53c e6f8 5fbc
000000b0: 6dcd 2abc 5234 5bbc c008 5abc 5374 883d
000000c0: 2729 72bd dd3d 8f3c 90a1 a0ba 2964 023c
000000d0: 0712 c1bb ddad 61bd 0ae5 0c3c a32b 763b
000000e0: a986 02bd 7f05 10be 11ce 863d 8536 85bd
000000f0: 6338 75bd ddfa 4e3d 2859 903d bc39 bd3b
00000100: 23e8 1f3d 8be0 cfbc cd60 b9bd 726e 8abd
00000110: 3374 6cbd 91c1 98bc 107a 593c e772 74bc
00000120: 8b90 633d 27b6 37bc 0298 1ebd 9c84 773d
00000130: b849 8abd 6c32 edbc e33a 043d a7fe 8cbd
00000140: 9045 0dbd 73c6 0b3e a4db efbc f10b 743e
00000150: 9cd4 d0b8 a622 143d b8ba 08bb 697c 81bd
00000160: 6a65 4a3c 3083 673b 82e1 ecbc 908d b63d
00000170: 43d8 d53d 8210 863c bf1f c23c 2012 683c
00000180: 7380 b63c 52d3 3b3e 4c6d f5bc e573 b93c
00000190: 9436 3b3d bb68 463d e15f 4d3d 46a5 47be
000001a0: d924 f3b8 a8a6 193d ee3c 50bd 5f4f 8ebd
000001b0: a6a7 7dbd 3111 21bd 5a34 66bd 388b 7ebd
000001c0: 36fd 41bd dc27 8a3c 52d4 053d 2edc c63c
000001d0: b8ec ac3d d043 8cbd 48d9 9fbd c02c e2bd
000001e0: fcd1 aa3c ac1d 3abd 6b25 39bd e9a5 dabc
000001f0: 779f 3cbd ab7b 73bd 59bd a33d d4f4 8abd

fc3.weight f4 [1, 128]
-0.02729594 0.07576383 -0.06114268 0.04596214 0.06433201 0.08209582 -0.05967427 0.042844716
-0.02666832 -0.13694964 -0.024772223 -0.055351082 0.047755808 0.068845056 0.023548936 0.02309371
0.05258207 0.010667185 -0.06463573 0.06235652 0.060087197 0.060079344 0.058290724 0.028169032
-0.11733508 -0.069534525 -0.23126417 0.08180998 0.041778382 -0.09095699 0.04278606 -0.017154746
-0.012279505 -0.053399846 -0.041114915 -0.049140163 0.08576524 -0.070492335 -0.16496858 -0.11055032
0.047893237 0.088882655 0.03010821 0.014839147 0.055050794 -0.049548484 0.041593898 0.031905472
0.046733506 0.055716455 -0.09223583 0.20544592 0.090200916 0.030575924 0.119463824 -0.035482816
-0.072011136 0.11546668 0.034750793 0.08959682 0.10202414 -0.057870466 0.035524093 -0.058512237
-0.02424186 -0.050465412 -0.10342002 -0.19343129 -0.09383803 -0.21890727 0.06425455 0.06351012
0.0644538 0.07838668 0.15880601 -0.0746749 0.09979947 -0.09029561 0.011859558 -0.07087422
0.015699321 -0.025463711 -0.08933315 -0.022665884 0.06847742 -0.033831473 -0.04137074 -0.072997846
-0.15906672 0.031718824 -0.10190489 0.01714055 -0.02477187 -0.07270246 0.040715605 0.0912556
-0.06799088 -0.05066658 -0.048509423 0.08225803 0.12285532 0.0529066 -0.062858604 -0.08303091
0.045359086 0.08851017 -0.036163308 -0.086843595 -0.016994325 -0.079666704 -0.090451635 -0.116995215
0.039399575 -0.044024218 0.020517545 0.064285085 -0.07272515 -0.040114935 -0.4049342 -0.02283991
0.027312858 -0.0772602 0.13347182 -0.097842194 -0.03362357 0.08740554 0.029636053 -0.007565487
00000000: bc9b dfbc 112a 9b3d bf70 7abd cc42 3c3d
00000010: 80c0 833d da21 a83d 026d 74bd f17d 2f3d
00000020: 8577 dabc 873c 0cbe 1eef cabc d1b7 62bd
00000030: 989b 433d a3fe 8c3d b3e9 c03c 052f bd3c
00000040: 4c60 573d 6bc5 2e3c bd5f 84bd 8d69 7f3d
00000050: fe1d 763d c215 763d 41c2 6e3d bec2 e63c
00000060: 604d f0bd 1e68 8ebd 84d0 6cbe fe8b a73d
00000070: cf1f 2b3d a947 babd 7040 2f3d 1c88 8cbc
00000080: fa2f 49bc ccb9 5abd 1d68 28bd 3247 49bd
00000090: b0a5 af3d 495e 90bd 86ed 28be 3568 e2bd
000000a0: b32b 443d 1c08 b63d 7ea5 f63c e51f 733c
000000b0: f17c 613d 5af3 4abd 5d5e 2a3d 50af 023d
000000c0: a26b 3f3d f036 643d 24e6 bcbd 6a60 523e
000000d0: 42bb b83d 5c7a fa3c 73a9 f43d 6e56 11bd
000000e0: 937a 93bd cb79 ec3d d956 0e3d 8a7e b73d
000000f0: 08f2 d03d 9509 6dbd b681 113d 87aa 6fbd
00000100: dd96 c6bc d2b4 4ebd e0cd d3bd da12 46be
00000110: 272e c0bd 3a29 60be e497 833d 9811 823d
00000120: 5b00 843d 3289 a03d 0b9e 223e 27ef 98bd
00000130: aa63 cc3d e8ec b8bd 974e 423c 8126 91bd
00000140: dd9b 803c 4699 d0bc 4cf4 b6bd cead b9bc
00000150: e43d 8c3d df92 0abd 5d74 29bd e57f 95bd
00000160: 63e2 22be 99eb 013d 83b3 d0bd 576a 8c3c
00000170: 60ee cabc 07e5 94bd 68c5 263d 37e4 ba3d
00000180: cd3e 8bbd c387 4fbd d1b1 46bd e676 a83d
00000190: 929b fb3d 97b4 583d 03bc 80bd 1c0c aabd
000001a0: 73ca 393d d244 b53d fa1f 14bd 0edb b1bd
000001b0: af37 8bbc 4c28 a3bd b53e b9bd 309b efbd
000001c0: 7361 213d bd52 34bd 6914 a83c e6a7 833d
000001d0: ecf0 94bd 8f4f 24bd 8953 cfbe c31a bbbc
000001e0: 37bf df3c 993a 9ebd d6ac 083e 7d61 c8bd
000001f0: deb8 09bd ad01 b33d 4fc7 f23c e8e7 f7bb
