DDPG_Actor1.pth (torch_old, 183840 bytes, 6 tensors)

fc1.weight f4 [256, 48]
00000000: c250 cfbd 50f3 a23e 9327 df3b 7d98 2e3e
00000010: affd 573e 307a 3c3c d267 423c 3e38 653e
00000020: e393 20bd ef10 023f fc34 64bd d51e 2bbd
00000030: df7a e5bc a4a6 ffbb fa20 c83b 0a84 483d
00000040: 229d 3fbc c245 b03e c081 c9bc c068 9ebe
00000050: 2756 12be f715 6c3e 57b3 643c 420b 75be
00000060: ccc9 debc 04c5 1d3d ed13 3dbd 0469 41bd
00000070: 615d 5abe 338e 29bd 0937 473d e6d5 2abd
00000080: 27f3 cc3d adcf 153e 9c7b 6a3c f097 673d
00000090: 663d 043c 08df c6bb 52e1 97bc 5322 d43d
000000a0: 27e9 aa3d 402f f53d 9b96 ddbc 95d6 0b3e
000000b0: acb9 1b3e c035 713e f396 a03c 01e1 2c3e
000000c0: 095d 0cbd ce80 013d 3b2d babd 3d88 84bd
000000d0: b536 f4bd 0569 1cbd e151 6dbd 0134 27bd
000000e0: 5033 42bd 54e3 e53a caa5 0ebe 54dd b03d
000000f0: 0722 01be 38d7 c1bd 0848 4dbd 6c42 003e
00000100: f48d 11be fa0b 063d a549 8cbd 7a54 98bc
00000110: 84b3 e73c 9552 abbe b2c3 a9bd f2e3 81bd
00000120: d3fb a2bc e6bc b0bb c31c 30bd 9a7f 1bbc
00000130: 880a 933d c565 32bd 34fb 3fbd e39e 71bd
00000140: b213 04bd 5ff5 3dbe 401c b8bb aa2c 4c3d
00000150: c7d5 f73d adae 4fbe 6817 05bd a4b5 80bc
00000160: ccc3 74bd 5a94 bfbd 5db0 d0bc 1a63 213e
00000170: 4db2 06be b5a4 9ebe 132c c5bd 161c 4a3e
00000180: 814c a53d e31d 943d 2565 973d c8b5 883c
00000190: 3ce7 cfbd 98ec e33d daee 3c3d 5d44 e03d
000001a0: 78de 173e a07e e53d d819 ccbc a572 57bd
000001b0: f172 b1bd ea76 313d c7e1 63bd c2e5 09be
000001c0: 42ca a83d 9f5c c73c fa3a c4bb 2180 60be
000001d0: 4bae 8ebc 26fb 7e3d d3ac b1bc a253 51be
000001e0: 914c 5c3d 1c48 1a3e 9551 38bd 8b40 443e
000001f0: 570b 873d b392 e23d 3bb1 bd3c fa43 2c3e
00000200: 81b6 e43d 6806 be3e f669 b9ba 1c67 8f3e
00000210: c248 283d 1071 763d b239 773d 9e09 3a3e
00000220: 3585 233d 7d1a 983e d5e6 30bd e661 c0bc
00000230: 9abb e53a 6678 e73c d7d7 813d 993a 62bd
00000240: 4eb7 423e d0fa abbd 758a 113d c35a 8fbd
00000250: c7d2 e13d 99a2 8d3c 858e aa3d 57ea 0abe
00000260: 3286 0a3e 93d7 4fbe 3a38 b23c bf47 71bd
00000270: 6739 6f3e d5c3 a53c a035 32ba 6950 14bd
00000280: 9332 603e 3fe5 33be df87 d03c 7e31 57bc
00000290: f8a4 aa3e 9e79 09be ca92 8cbd e689 003c
000002a0: e5cf 353c ec95 80bd 4e08 45bd 3222 b0be
000002b0: a0a8 55be c12e a8bc f4f0 a8bc 8a84 b1be
000002c0: e047 413c 99d1 40be 7682 273c 6df5 39be
000002d0: 4504 50be df02 c7bc e78a 363d 94cf 7cbe
000002e0: cd10 d23d c31e 79be 9535 0c3d e7ba 1fbe
000002f0: 934a 8cbe 9094 bfbc c802 4cbd eda9 2cbe
00000300: 79c0 0bbe c986 8abe 8634 4fbd 355d 79bd
00000310: 2716 04be fc49 c7bb 1248 843c 4f0a b2bd
00000320: 4902 8bbd 60c8 43be 0437 df3c e9c2 403e
00000330: a484 b23c 2ed7 2cbe bc99 23bd 1034 6a3e
00000340: 75f6 acbd 6e61 383b 42b5 e0bc 96b3 8c3e
00000350: d9a0 a33d c54e ddbe 147b 753c c19e 553e
00000360: f220 81bd c7e7 c13d 4582 6dbd 21c8 43be
00000370: e116 6f3d ab34 fd3c e0ef c63a bf2f 91bd
00000380: 84a7 b1bd fbff 183d 9c62 afbd 2db0 093d
00000390: d71a e9bc d1d6 78be ea2d 01bd 84cd e8bc
000003a0: 98e2 a1bd 65cf 6b3d 3a76 5abd 8244 84bd
000003b0: 9527 b3bc de5e eabe 7928 123c 7b26 f2bd
000003c0: cdc5 023f 2233 53bd 2af5 6a3a d7d7 903d
000003d0: 76c7 003c 4978 333e f7fc 933c 41d6 8d3d
000003e0: 3205 913e 73f7 a33c 04b8 98bc dc96 a13c
000003f0: ae01 463c fe35 07be 74fe 1fbd 8e0f 803c
-0.10122825 0.31826258 0.0068101375 0.17050357 0.21092866 0.011503741 0.011865573 0.22384736
-0.039203536 0.5080709 -0.055714592 -0.04177745 -0.028012691 -0.0078018475 0.0061074467 0.048954047
-0.011695178 0.3442822 -0.024598002 -0.30939293 -0.14290677 0.23055254 0.013958774 -0.23930076
-0.027195834 0.038517967 -0.04616158 -0.04721929 -0.21324684 -0.041395377 0.04863647 -0.041707896
0.10007315 0.14630003 0.014311697 0.056541383 0.008071279 -0.006069068 -0.018540058 0.10358109
0.083452515 0.11971903 -0.027049353 0.13656075 0.15207547 0.2355566 0.019603228 0.16882707
-0.034268413 0.03161698 -0.09090658 -0.06471298 -0.11924497 -0.038186092 -0.057939414 -0.04082108
-0.047412217 0.0017539063 -0.13930431 0.08635965 -0.12610637 -0.09464878 -0.050117522 0.12525338
-0.14214307 0.032726265 -0.06849984 -0.018594969 0.028283842 -0.33461443 -0.08289279 -0.06342305
-0.01989547 -0.005393612 -0.04299618 -0.009490872 0.07179743 -0.043554086 -0.046870425 -0.058989417
-0.032245345 -0.18550633 -0.005618602 0.049847282 0.12101322 -0.20281477 -0.032493025 -0.015711613
-0.05975704 -0.09354468 -0.025474722 0.1576046 -0.13153954 -0.30985036 -0.09627547 0.19737276
0.080712326 0.07232263 0.07392339 0.016688243 -0.10151526 0.11129111 0.046126224 0.10950539
0.14830959 0.112057924 -0.024914667 -0.052599568 -0.086645015 0.043326296 -0.05563524 -0.13466552
0.082417026 0.024336157 -0.005988476 -0.21923877 -0.017417094 0.062251233 -0.021688854 -0.2044206
0.053783957 0.1506657 -0.044999678 0.19165246 0.0659396 0.11063137 0.0231558 0.16822806
0.11167622 0.37114263 -0.0014145959 0.28008354 0.041085012 0.06016642 0.060357757 0.18167731
0.039921958 0.2970771 -0.04318889 -0.023484182 0.0017527223 0.028255653 0.06339996 -0.055231664
0.19015238 -0.08397448 0.035532434 -0.06999733 0.11026531 0.017289447 0.08327965 -0.13565956
0.13527754 -0.20297079 0.021755327 -0.058906313 0.23361741 0.020234982 -0.0006798152 -0.036209498
0.21894293 -0.17567919 0.025455413 -0.013134358 0.33328986 -0.134253 -0.06863935 0.007845378
0.011096929 -0.06278595 -0.048103623 -0.3440109 -0.20865107 -0.020530106 -0.020622708 -0.34671432
0.0117969215 -0.18829955 0.010223975 -0.18160029 -0.20314129 -0.024293361 0.04456606 -0.2468856
0.10257111 -0.24328141 0.034230787 -0.15598641 -0.27400646 -0.02338627 -0.04980734 -0.16861697
-0.13647641 -0.27055958 -0.0505872 -0.060879905 -0.12899075 -0.0060818177 0.016147647 -0.086933725
-0.06787545 -0.19119406 0.027247913 0.18824352 0.021791764 -0.1687896 -0.039941534 0.22871423
-0.084454454 0.0028134244 -0.02743018 0.27480763 0.07989664 -0.4322416 0.014982957 0.20861341
-0.06305112 0.09468036 -0.057985563 -0.19119312 0.05837143 0.030908903 0.001517769 -0.07089185
-0.08674529 0.037353497 -0.0856373 0.03361528 -0.028455181 -0.24300696 -0.031537928 -0.02841831
-0.079045475 0.057570834 -0.053335406 -0.06458379 -0.02186946 -0.45775503 0.008920782 -0.11823746
0.5108307 -0.051562436 0.0008962924 0.07072418 0.007860055 0.17526354 0.018064959 0.06925631
0.28324276 0.020015454 -0.018642433 0.019725256 0.012085361 -0.1320419 -0.039061025 0.015632417

fc1.bias f4 [256]
00000000: c114 ebbd a4a1 e73d fa92 8ebb 9cf0 8bbd
00000010: 03c0 83bc ec76 c03d be2e 013e 1a27 7e3d
00000020: 3f3c 7ebe fdd1 073e 6e37 01be 2149 4b3e
00000030: 4360 fb3c 30ab a63d aa91 1fbe a1f5 4e3e
00000040: 4bf9 a4bd 6a1b 24bd 5dd8 f5bd 76e6 803d
00000050: 9daf 2e3e f33b 20bb 0a32 753c 92f9 36bd
00000060: 014b e63d e984 7fbd bf2f 193e 2819 00bd
00000070: 5b01 e7bd 78b2 4dbe 5455 26be 3702 943e
00000080: 3594 483e 9885 103e d3c6 083e 415b 48be
00000090: 7c3d 33bd ec1e 523d d143 6abe 6fd8 dabd
000000a0: 0f39 9a3b 95b6 58bd 6f5a 2ebe 89b1 fabd
000000b0: 121c b5bd dc45 abbd b12b febc 180d 3fbe
000000c0: 76a1 813d 888a af3d 0ae3 2fbd 5d7a 09be
000000d0: a4d6 d1bc 9b7c afbc 58cc 51be 7dd2 12bd
000000e0: b873 703e 2e91 1f3e 5fb4 5e3d 2bbf 19be
000000f0: 54f2 1f3e 4d48 13be 1f9a fd3c 8b66 bebd
00000100: f4be 04bc 4983 57bc 8f5f e63d b78a 8c3d
00000110: 3011 833c 725a a6bc 1b07 c63d 7f43 bdbd
00000120: 8ebc 1f3c bb04 c33d 219f 3b3e 7349 be3d
00000130: cfee fdbd 8e9a f0bd 8448 23be c797 08be
00000140: 89fc 9ebd 3b92 d73a ea26 493d 4544 f3bd
00000150: ec4c 143e 9f96 2fbe 75a4 79bd 598a 1c3e
00000160: 7013 3d3e cdf1 ae3b 23a5 25be 3d53 eabc
00000170: 9311 53bd 650d 9a3d 26f3 fe3c 6a52 a23d
00000180: 69ad be3d c310 a03c e82c f13d 1417 9d3d
00000190: d0a6 3abe dd53 b0bd 8ef7 8d3e 6fe4 ee3c
000001a0: 3b7a 6d3d 34d0 5d3d f6c4 13be caab 22be
000001b0: e16f 5abc d7f0 303d eebc 11be fb4b 3f3d
000001c0: 258c 493c 6369 97bd df18 a1bd 511c 49bc
000001d0: 1689 28be 6df6 593e a10c 6bbe 8fe4 c43b
000001e0: c35c 1fbe f97d 59be 0c0a 2dbe f944 2b3d
000001f0: dd07 27be b5b8 353d 77a5 fcbd d312 8f3d
00000200: 2ee3 523d 4579 01bd d2dd 73be d6c1 27bd
00000210: 13f5 1abe 30a7 ebbd 006c ecbc 5db5 bd3d
00000220: ec92 c4bd 61fa 34bd f1a4 de3d ca2f b9bd
00000230: c085 c7bd 8a9b e9bc 895d e3bc 5236 313d
00000240: 6b6a 813e f32d 58bc 072e 8739 0524 d8bd
00000250: 39bf 073e ef05 363d aceb f93d 9e74 adbd
00000260: c2a7 0c3e 8d00 7fba b98a bc3d 0998 e6bd
00000270: 34f1 5abd 3501 38bd 4b3b de3c 17cb a0bd
00000280: a32c edbd 5d5a 533d 2ce0 8ebd 1e89 a1bd
00000290: 3b16 01be 3e50 a0bd 566e 76be d309 16bd
000002a0: 6cdb ff3c 53ce 1abe 0aae da3d f410 70bd
000002b0: 1b88 9abd 5717 193e 8e44 423d bf8f 75bd
000002c0: 715f 4b3d 9bf6 13be 5408 da3d 3b5c 05bd
000002d0: 47ac 7a3d beb6 85bc 592e 013d a2e7 223d
000002e0: 9a1f 20bd 1498 2ebd 51b8 443d c5d7 b3ba
000002f0: 876d ebbc dc83 c53d da5f 2d3e d404 6f3e
00000300: abd6 363c 31c9 72bc 3388 c4bc aab9 313c
00000310: 7674 95bd 80d7 b1bd 9d67 b33c 46ce 28be
00000320: 1d9d 4d3d 15f5 e5bd 569b d4bd 2a2e 35be
00000330: e940 d7bc ece9 763d 5480 02be 6097 d2bd
00000340: 053f f9bc fa31 ae3d 5f19 5fbe 856a a4bd
00000350: cf38 8abc 560e cf3d 0360 22bd 218f e93d
00000360: e03e 2bbe fc54 133e db90 98be 1138 02be
00000370: af2f 123d 4dc7 2dbd bb79 39be f599 223c
00000380: 4f3a 8b3e cb72 063d b002 19bd fe42 53bd
00000390: 0212 983d 7cd0 80be 3b1c 03be bb75 0fbc
000003a0: 8696 12bc b0a8 f5bd c34b 1fbe d085 a5bc
000003b0: dd37 543d 6cc2 da3d 6e31 463d 3819 52bb
000003c0: a248 843e ffad 18be 5002 1cbd 90d0 10be
000003d0: 5ec3 58be 3a89 b5bc 1b7d 88bd 5c35 35be
000003e0: e897 843d a127 563e 2462 2ebe 4a5d 6b3a
000003f0: df54 43be cbfa a9bd d529 a53c baa3 27be
-0.11478568 0.113101274 -0.004351017 -0.06833002 -0.01608277 0.093976825 0.12615487 0.06204901
-0.2482767 0.13263698 -0.12618801 0.19852115 0.03068555 0.0813812 -0.1558291 0.20210887
-0.08055361 -0.040065207 -0.12004159 0.06293957 0.17059179 -0.0024449795 0.0149655435 -0.044671603
0.112447746 -0.062382612 0.1495962 -0.03127399 -0.112795554 -0.20087612 -0.16243488 0.2890794
0.19587786 0.14113462 0.13357095 -0.1956606 -0.043759808 0.05129902 -0.22877432 -0.10685813
0.004706509 -0.0529085 -0.17026685 -0.122408934 -0.088432446 -0.08362934 -0.031026693 -0.18657339
0.06329624 0.085713446 -0.04294113 -0.13425584 -0.025615044 -0.021421721 -0.20488107 -0.03584527
0.23481643 0.15582725 0.054371234 -0.15014331 0.15619785 -0.1438305 0.03095728 -0.09296902
-0.008102167 -0.013153859 0.11248695 0.06862395 0.015999407 -0.0203068 0.09669324 -0.092413895
0.009749545 0.09522387 0.18322422 0.09291353 -0.12399065 -0.11748229 -0.15945631 -0.13339148
-0.07763011 0.0016446778 0.049109377 -0.11878256 0.14482468 -0.17147301 -0.060947854 0.1528715
0.18464446 0.0053388835 -0.16176276 -0.028604144 -0.051530432 0.07522086 0.031121802 0.079258755
0.09310419 0.019539243 0.11776143 0.076704174 -0.18227696 -0.08609746 0.27727932 0.02916166
0.057977896 0.054153636 -0.14430603 -0.15885845 -0.013332338 0.043198433 -0.14232227 0.04670332
0.0123014795 -0.07393148 -0.07866072 -0.012274818 -0.16458544 0.2128541 -0.22954036 0.0060086916
-0.1556273 -0.21239461 -0.16898364 0.041813824 -0.16311593 0.044365603 -0.123362474 0.06986012
0.051486187 -0.031609792 -0.23815086 -0.04095634 -0.15132551 -0.11506498 -0.028860092 0.09263108
-0.095983356 -0.044184092 0.10871304 -0.09042318 -0.09742308 -0.02851655 -0.027754562 0.043264695
0.25276503 -0.013194549 0.000257835 -0.10553745 0.1325654 0.044439252 0.12203154 -0.084695086
0.1373587 -0.000972756 0.09206147 -0.11259467 -0.053452685 -0.044923026 0.027127882 -0.07851236
-0.115807794 0.05159985 -0.06976351 -0.07887481 -0.12606137 -0.07827805 -0.24065527 -0.036630463
0.031232558 -0.15117769 0.106777266 -0.058609918 -0.07545491 0.1495031 0.04742866 -0.05995154
0.049651567 -0.14449541 0.1064612 -0.03255866 0.061199453 -0.01632249 0.03153834 0.039771684
-0.039092638 -0.0426255 0.04802734 -0.001372092 -0.02873875 0.09644291 0.16931096 0.23341686
0.011159579 -0.014818476 -0.023990726 0.010847488 -0.07297604 -0.086836815 0.021899993 -0.16484937
0.050198663 -0.11228386 -0.103811905 -0.17693391 -0.026276069 0.06028168 -0.12744266 -0.10282779
-0.030425558 0.08505626 -0.21787022 -0.080281295 -0.016872792 0.10110156 -0.039642345 0.11404253
-0.16723204 0.14387888 -0.29798016 -0.127167 0.035690006 -0.042426396 -0.18112843 0.0099244015
0.27192923 0.03282432 -0.03735608 -0.05157756 0.0742531 -0.2515906 -0.12803738 -0.0087560965
-0.00894702 -0.11995065 -0.15556245 -0.020205408 0.051811088 0.10681614 0.048386984 -0.0032058489
0.25836664 -0.14910124 -0.038088143 -0.1414206 -0.21168277 -0.022160161 -0.06664487 -0.17696136
0.06474286 0.20913555 -0.17029625 0.000897844 -0.19075345 -0.08299788 0.020161549 -0.1637105

fc2.weight f4 [128, 256]
00000000: cc20 32bc 459b ab3d 88a4 ad3d 7a4f 16bd
00000010: a07c 88bc 641d 0cbe 1a05 293d a0fe 1fbd
00000020: af8b 2e3e 0366 213e 9fda f83d 7744 a53d
00000030: cf34 1fbe 40a6 5cbd 6d53 0f3e fd5d 113d
00000040: 8762 9bbe 518f 49be d4de 923c 9dc5 36be
00000050: f748 6a3d f2b6 d93d 069b d7bd e53e 5fbd
00000060: 58be babd cd27 81bd 70a0 6cbc 0124 09bc
00000070: 6da1 12be 5dec 8cbc 6f82 69bd c36e 00bc
00000080: 2989 093e 336c 06bd 0ae6 0cbe 0114 09ba
00000090: 074f c23d f792 1c3d 7acc 013e cd37 33be
000000a0: 82a3 eabd b9fc 153d b4a1 58be fb71 85be
000000b0: 8872 61be 52aa 73be 610e f4bd 4ccd 443e
000000c0: 37e1 d2bd 9017 493e 3b81 6d3e 889b 95bc
000000d0: 1851 aa3d acb8 4dbc 03e7 f8bd 84b4 09be
000000e0: 06c0 933b 94ff 793d fb5d 013e 6b20 34be
000000f0: bbfb c93d acec bdbd 3b64 3c3b 4eb2 073d
00000100: 79e0 53be a9df 343e 2d0f 843d 1e4e a43d
00000110: 2d58 14bd ecbb c5bd 8fd8 993d 1792 a3bd
00000120: df19 033e 6676 513d a3f3 7e3d b784 f63d
00000130: 7a0d 7d3d 891d a53d d448 e8bd ef20 fcbc
00000140: 5e0e 73bd 0975 c7bd c27f 143d 0dc2 34be
00000150: b188 d63c 13cc 35bd 7cf7 8b3d 2359 993d
00000160: 4b26 3ebd 34b1 b53d dc87 d03d 8dce a6be
00000170: 52db 2abe 1ffa 87bc 1c7f b03d 0714 943d
00000180: 8aac 4b3d df65 af3d 5650 22bd e772 a13d
00000190: e70e c5bd 6a01 1abc dc0b 803e 1a8b 04be
000001a0: 946b 9abd a40a e83c 3044 8cbd 29c6 97ba
000001b0: 3010 3dbe 5b4d 71be f9ba 273e 5787 043e
000001c0: da67 e63c f552 19be b17b f83d 0a22 9b3c
000001d0: d63f 123e 34f2 dc3d cd06 08be c0ae 30bd
000001e0: 5df6 0cbe b9ca f1bc 2c04 51be 1b33 febb
000001f0: 90fd 553d 0987 9c3c 9865 e53d 849d 093e
00000200: de98 c3bd 8d4b d43d 8d78 933d 4a07 2b3d
00000210: 1aa8 b6bd 4505 323e 9821 db3c 5991 b63d
00000220: e7d6 14be c216 0c3e 4e37 2a3e b61c ea3d
00000230: 0588 d13c b686 353e 4933 3c3d e910 fb3d
00000240: cc09 8a3d f83c 103e d66a 0cbe 2e7e a73d
00000250: ea6c 0c3e 36e3 3bbd 4535 1dbd 83fb 27bd
00000260: 0089 8a3d 7eb8 b63a 0dba 18be b40b b33d
00000270: 0749 163c bc19 803d 4039 133d e3bd 61be
00000280: 5481 9fbd 0a07 babd a317 debd d030 b73d
00000290: 6fff 96bd 978c 71be 8341 163d a3a1 873d
000002a0: 83c9 7abd c6e6 80bb 3ed6 afbd bc3b 12bd
000002b0: 71b7 403d 37e0 543c dcc0 b0bb 9592 29be
000002c0: 2d26 37bd d9f2 e6bc 2683 833d 7429 f1ba
000002d0: de4e 573d 1095 a53c 3797 583c 84cd 173e
000002e0: 20c5 473d 7a90 b23d 5b37 f3bc b92e a8bd
000002f0: ac9c 0b3c 6bf2 56bd f3c0 733d 07a3 e9bd
00000300: 1ba7 da3c f34f 093e aa17 923d 8a8c fb3d
00000310: 092c 743d 69f6 513e 7895 f8ba 04e6 f1bd
00000320: 6825 173b 054f 9abc 75ea bebd a97b 0fbc
00000330: bb33 02bc d961 2cbe 8b07 16be 937c 223e
00000340: b763 ffbc 95c7 e73d 97b2 663d 55d5 de3d
00000350: f1ec 73be c186 f43b eaa2 e6bc 0a52 02ba
00000360: ce69 543d 6ff6 07bd a99b 8cbd bb41 703d
00000370: 4abb 163e f586 76bc 8228 b1bd 40db a4bd
00000380: e264 023e 0717 83be b3d8 153e 4bf6 29bb
00000390: 65f5 b2bd 4cff 6cbe 8d65 40bd 17b0 9dbd
000003a0: 43ee 7cbd f9ec 0a3e 0784 91be 9fdb 06be
000003b0: ab12 0c3e bcdb 173e af76 7c3d a2ca 453e
000003c0: 1bd9 0dbd 7a54 8bbd 4b4b a23d 5bb7 74bd
000003d0: d29c a0bc 34ee 0bbe 15cd 27be 7b4f 293e
000003e0: 068c d63d 6290 20bd 633a 1fbe 8534 a43d
000003f0: 96e2 8dbd 79bd 3e3e d837 f5bd c7be 52b9
-0.010872077 0.08379225 0.084786475 -0.03669689 -0.016660988 -0.13683087 0.04126463 -0.03906119
0.17045473 0.1576157 0.12151074 0.08069699 -0.15547489 -0.053869486 0.13996668 0.035490025
-0.30348608 -0.19683577 0.017928518 -0.17848821 0.05719849 0.10630597 -0.10527615 -0.05450334
-0.091183364 -0.063064195 -0.014442548 -0.0083704 -0.14319392 -0.01720255 -0.057009157 -0.007838908
0.13431229 -0.03281803 -0.13759628 -0.0005229116 0.094877295 0.038226094 0.12675658 -0.17501755
-0.11456968 0.03661797 -0.21155435 -0.26063523 -0.22016346 -0.23795441 -0.11916805 0.1921894
-0.102968626 0.19637895 0.23193829 -0.01826264 0.08316249 -0.012556236 -0.12153437 -0.13447767
0.004508975 0.061034754 0.12633507 -0.17590491 0.09862467 -0.09273657 0.0028746265 0.03312903
-0.20691098 0.17663445 0.06448207 0.08022712 -0.036216903 -0.09654984 0.075120084 -0.07986849
0.12802838 0.051138304 0.06224407 0.12037032 0.06178043 0.08062274 -0.11342016 -0.030777423
-0.059339873 -0.097391196 0.03625465 -0.1765215 0.026188226 -0.044384073 0.06834313 0.074877046
-0.046423238 0.088716894 0.10182163 -0.3257946 -0.16685227 -0.01659876 0.08617994 0.072303824
0.049725093 0.08564352 -0.039627396 0.07883244 -0.09621983 -0.009399751 0.25009048 -0.12943688
-0.0754005 0.028325386 -0.06848943 -0.0011579442 -0.18463206 -0.23564665 0.16379918 0.12942253
0.028125692 -0.14973052 0.12132967 0.01893713 0.14282164 0.10788384 -0.13283844 -0.043135405
-0.13765855 -0.029515611 -0.20411748 -0.007757557 0.05224377 0.019107359 0.11201018 0.13438994
-0.095506415 0.10365973 0.072007276 0.041755 -0.089187816 0.17384823 0.026749417 0.089144416
-0.14535104 0.13680556 0.1662266 0.114312574 0.025577554 0.1772717 0.045947347 0.12259085
0.0674015 0.14085758 -0.1371263 0.08178364 0.13713422 -0.045870982 -0.03838088 -0.041011345
0.06764412 0.0013940481 -0.14914723 0.087424666 0.0091726845 0.062549084 0.03594327 -0.22045092
-0.07788339 -0.09083374 -0.10844352 0.08944857 -0.07372939 -0.23588787 0.03668357 0.06622627
-0.061227333 -0.0039337603 -0.08585785 -0.0357015 0.047049943 0.01299291 -0.0053940844 -0.16559823
-0.04471414 -0.02819197 0.06421499 -0.0018399195 0.052565448 0.02021268 0.013219646 0.14824492
0.048771977 0.08718963 -0.029689481 -0.08212037 0.00852124 -0.05247728 0.059510183 -0.11408048
0.02669101 0.13409404 0.0713342 0.12282665 0.059612308 0.20504154 -0.0018965444 -0.1181145
0.0023063067 -0.018836508 -0.09322063 -0.00875751 -0.007946904 -0.16834201 -0.14651315 0.15867834
-0.031175477 0.11317364 0.05632266 0.108805336 -0.23820855 0.007462353 -0.028153855 -0.0004971331
0.051858716 -0.033194 -0.06865627 0.058656435 0.14719883 -0.015046825 -0.086503044 -0.08049631
0.12733796 -0.25603506 0.14633445 -0.0025934156 -0.087382115 -0.23144263 -0.046971846 -0.07699602
-0.06175066 0.1356696 -0.2842104 -0.13169716 0.13678996 0.14829916 0.061636623 0.1931558
-0.034630876 -0.06803222 0.07924517 -0.059745174 -0.019606028 -0.13665086 -0.16386826 0.16534226
0.10475926 -0.039200194 -0.15549617 0.0801783 -0.069279835 0.18626966 -0.11973542 -0.00020098231

fc2.bias f4 [128]
00000000: 1fbd d93b 63cd d3bb efb3 0fbe cd4d 8dbc
00000010: 2d8a b9bd 3ba1 95bc 0dfd e53c 3a04 7dbd
00000020: fe90 533d 60c0 d1bc 03f1 083d 1229 613d
00000030: af5c e5bd a430 d5bd 4f29 eb3c 5139 9abd
00000040: a8c2 09bd c0f7 fc3c 4df5 523d 93b7 94bd
00000050: aa62 f8bc 33a1 74bc be2f 9f3d 0e97 c63d
00000060: c1f2 46bd 8bfe 91bd eb78 7b3d 96f2 fcbc
00000070: d61a 8ebd 1dd9 4ebd 5bf1 03bd 8dd2 ff3c
00000080: 94ed 56bd 0349 33bc d8df d1bb 4df6 97bd
00000090: 6535 d0bc 4ae9 1c3c 758b ecbb c75f 003e
000000a0: 5189 c83c 35ca f43d 20fd 1c3e d723 0fbd
000000b0: ec46 923d 4317 bfbd dbe6 55bd 9e55 96bd
000000c0: bb00 81bd 2dd7 81bd d390 65bd 9277 073c
000000d0: 39ea 373d 27a3 82bd c8c1 99bc 42b5 9cbd
000000e0: 7ed1 23bd 209d 83bc 4e5d 323d c055 1a3d
000000f0: fca0 6c3b e14d d73c 361e 193d 06c0 843c
00000100: 4fae 16bd cbb3 043c 3e52 8ebd f0d4 0fbd
00000110: 94e5 c63c a08d 963d 33dc 393e 3f91 9c3d
00000120: b428 c7bb 7c61 77ba 1c24 36bc 60da 88bb
00000130: 9509 3b3d 367d 81bd 8a84 22bd da77 54bc
00000140: 6ebc 81bd 15e2 f33d 6051 dcbd df4d a6ba
00000150: 2dc4 dc3c 3976 5f3b 5bc2 4dbc a9a4 883c
00000160: 7b29 883d 8042 c1bd 1ff5 f8bc 8902 6e3d
00000170: b422 d13c 415a 953d 5b76 13be b33a 4a3d
00000180: 6714 e13b 0314 fdbd 26cb 463d 459a a1bd
00000190: 69ba a5bd 4ee4 d4bc 95ea 8b3c 0d11 2a3d
000001a0: a906 403d c929 f3bd e22d 1f3d ca01 463d
000001b0: 37ae b5bd 4740 fbbd 41bf 583d 99a0 08be
000001c0: 5240 c6bd b1a8 bcbd eddf 063e a747 10bc
000001d0: 31d9 b8bc 3713 34b9 a7bd 543d d734 41bd
000001e0: 19c9 973c 064c b03c b6d9 6c3c e8fd 1bbd
000001f0: 0762 bb3c ec3f d4bd 181a 1e3c a407 1f3c
0.0066448594 -0.006463693 -0.14033483 -0.017249012 -0.09059558 -0.018265357 0.028074766 -0.06177161
0.051651947 -0.025604427 0.03343297 0.05497081 -0.111993186 -0.10409668 0.02870622 -0.075304635
-0.033632904 0.030879855 0.05150347 -0.072615765 -0.030320484 -0.014931011 0.07772778 0.0969678
-0.048571352 -0.07128628 0.061394613 -0.030877393 -0.06938712 -0.050500024 -0.032212596 0.031228328
-0.052472666 -0.0109427 -0.006404858 -0.07420025 -0.025416085 0.009577105 -0.007218773 0.12536536
0.02447954 0.119526304 0.15330935 -0.03494629 0.071424335 -0.09330609 -0.052222114 -0.07340549
-0.062989675 -0.0633987 -0.05604632 0.008268254 0.044901107 -0.06378775 -0.01876916 -0.0765176
-0.03999471 -0.016066134 0.043546014 0.037679434 0.0036106696 0.026282253 0.037382327 0.016204845
-0.036787327 0.008099507 -0.0694928 -0.035115182 0.024279393 0.073512316 0.18150406 0.07644891
-0.0060778502 -0.00094368285 -0.011117008 -0.004176423 0.045663435 -0.0632271 -0.03967718 -0.012968028
-0.06334768 0.11908356 -0.107577085 -0.0012688002 0.026949013 0.0034097566 -0.012558545 0.016680079
0.06648537 -0.09436512 -0.03039032 0.058107886 0.025529243 0.07292605 -0.14400618 0.049372386
0.006868887 -0.123573326 0.04853358 -0.07890753 -0.080921955 -0.02598777 0.01707963 0.041520167
0.04688135 -0.11873204 0.038862117 0.04834155 -0.088711195 -0.12268119 0.05291677 -0.13342513
-0.09680237 -0.09211863 0.13171358 -0.008806146 -0.022564502 -0.00017173296 0.05193868 -0.047169533
0.018528508 0.021520626 0.014456203 -0.03808394 0.022873892 -0.10363755 0.009649776 0.0097064115

fc3.weight f4 [2, 128]
00000000: a8d4 06be b519 943e e154 563e 92b8 3f3c
00000010: e2d7 f83d 9ed4 083e d344 2b3e 5816 c9be
00000020: 6ca2 bd3e 1992 303d d7d2 f9bc 6a9b 55bb
00000030: b623 4f3e ea65 e3be d67f 543d df83 8b3e
00000040: 1bfd 60be 01e1 033d a58a fcbb a935 99be
00000050: 7238 25be 71e2 a1bc 4633 cdbd 7689 ed3d
00000060: 1b16 a4be fd81 35be 00ce 2abd 169e 87bc
00000070: 12f8 76be 48f3 d6be 9acd a83c c5a5 ed3c
00000080: 17b2 10be 8e15 15be 6c39 cabe eb20 c8be
00000090: 33b7 05bf a1e2 88bd 9ee4 56bd 1e66 6f3e
000000a0: 9360 80bd 162e 713e fa33 6c3e bf8a 0f3e
000000b0: f086 93be 73b0 90bc ab70 c1bd c34b a1be
000000c0: 4628 0bbe 2ecf f83d 9084 5a3e 0a9a 803e
000000d0: 86d4 693e f54e e6be 926c fe3c 91bb fdbe
000000e0: 3b0e 1bbe a75a ddbd 5fcc 3a3e 21be 78be
000000f0: 5f28 50bf 08aa 733e dc32 ed3e 625c fb3c
00000100: 8b4a b9bd 8c41 05bb 78ab a2be 77f9 45be
00000110: 4a4e 1bbd 6209 823d 4f08 503e 5612 993e
00000120: e832 4bbe cef7 8cbd bd7f 9d3e 3b11 abbc
00000130: fce8 43be 7b4e b7bc 239b a13d d714 e5be
00000140: 8eb7 edbe b23f a03c d8cf 7e3e f18c 253e
00000150: 6fca 9c3c 1ac8 98bd 2196 c8bd a7cd 603e
00000160: 94e5 60bd deda f5be 6b52 fe3d fd5d 983d
00000170: 633f bd3d a893 353d 71a9 c03e 81d4 193c
00000180: 3ac4 afbd fbbc 07be b6fb 493e 4ca6 f23d
00000190: 6b21 1dbe 8bcd f73d 32f7 9f3d 19e8 16bc
000001a0: 1e38 ba3d 0a2d d0be 0af5 21bf 8bff 893d
000001b0: 145e 943e 3a90 a3be 4c2c b4be 79bf be3b
000001c0: 1f7e 46be 1ad4 b9be f805 fe3c 7426 afbe
000001d0: 3c17 11bd 0754 c2be eb34 673e 9cbd dabd
000001e0: f963 043e 46b3 513e f8fa 053e 8495 b13e
000001f0: 96c5 2cbe 6cb0 8ebc d93c 68bd dba3 fb3d
00000200: 4259 7b3e aed9 6cbe 3842 c13e c321 2fbf
00000210: 89ab a9bd 6e30 143e 146c 27bf a017 c53d
00000220: e991 4b3e 0916 42be afbe 123f 3b1f 0e3f
00000230: 70b2 8f3e 3da8 163e 3ce3 253f 999b cbbd
00000240: 6495 89bd c651 0fbe e8e4 0ebf 6940 c5be
00000250: f3fe 7c3e 0891 4bbf b620 febe ed8a 88bc
00000260: 8bb0 22be b239 2a3f b031 183e 8581 1abf
00000270: b1a0 c13d 91d7 c23d effd aa3e 9fa6 c2bd
00000280: 6d0c a5be 4316 2cbf 1c60 c33e b653 a63d
00000290: 54df 4dbe 3a22 b23e 1ca1 aabd fbf7 1fbe
000002a0: c0dd ad3e 7031 84bd 1875 02be b78a b63e
000002b0: d7f7 843d c47b 083e 7b99 3cbf f47c 163d
000002c0: d474 d0bd a9c9 d33e bfb2 ca3e 35e1 debd
000002d0: 0c38 b73e cb84 9e3d bc17 9a3d c644 013d
000002e0: b18b 163e 0a3a f63e 1798 203f 68f8 9cbd
000002f0: 97c6 693e c160 0cbe ace9 23be e172 efbd
00000300: f679 88bc cc93 b6be e679 163e fc79 81be
00000310: 0926 a3be 0617 f83e a0d9 6c3e 929e 0a3f
00000320: c734 7ebd 1c97 9cbe 1922 ae3e acdd 3f3f
00000330: 1420 4ebe 3f99 c6be daae 00bd 0f7e 2f3e
00000340: 0848 4dbd dd79 e13e 5979 6f3e 68b1 743b
00000350: 0770 e6be 3479 be3e 5cde d83e 8da5 b13e
00000360: b542 a6be a8e1 c33d 1588 063f 5461 483e
00000370: c791 84be 977e f5bd a93a 53bd 359d 503f
00000380: 4f15 cabe bde9 07be a32a a83e 694e 203f
00000390: 7973 793e 9dd6 1ebf b544 59be ddd8 bdbd
000003a0: 3848 05bf b397 843e 2b97 6c3d 88be 173f
000003b0: ca34 ed3d 973c 82be e3af 8ebe 30a3 273f
000003c0: 9476 42bd a4fd 05bf ce1c 1bbd 06a5 68be
000003d0: 45de 95be dc42 003c bda8 7d3e 392e 8a3d
000003e0: a5fa 34be 36b4 b43e 124f 86bd 9328 b1bd
000003f0: 4cf8 c2be 09ca b13e aa10 963e 13d0 c8be
-0.1316706 0.28925863 0.20930816 0.01170172 0.121505514 0.13362357 0.16725473 -0.3927486
0.3703798 0.04310808 -0.030496044 -0.0032593855 0.20228466 -0.44413692 0.051879726 0.27249047
-0.21971552 0.032197002 -0.0077069574 -0.29923752 -0.16134813 -0.019761296 -0.10019545 0.11598484
-0.32048115 -0.17725368 -0.041700363 -0.016554873 -0.24118069 -0.41982484 0.020605851 0.02900971
-0.14130436 -0.14559004 -0.39496934 -0.39087614 -0.52232665 -0.06683851 -0.05246412 0.23378798
-0.0626842 0.23552737 0.23066702 0.14017771 -0.28813887 -0.017662263 -0.09445318 -0.31503114
-0.13589582 0.121488914 0.21339631 0.25117522 0.22834978 -0.44982114 0.03105763 -0.49557164
-0.15142147 -0.10808306 0.18242024 -0.24291278 -0.813116 0.2379533 0.46327865 0.0306837
-0.09047421 -0.0020333258 -0.31771445 -0.19333445 -0.03791646 0.06349446 0.2031567 0.29896802
-0.19843638 -0.068832025 0.3076152 -0.02088224 -0.19131845 -0.02237629 0.07890918 -0.44742462
-0.46429104 0.019561622 0.24883974 0.16167046 0.019139497 -0.07460041 -0.0979426 0.2195345
-0.054906443 -0.48018545 0.12418064 0.07439802 0.09240606 0.04433027 0.37629274 0.009389044
-0.08582349 -0.13255684 0.19724926 0.11848125 -0.15344779 0.12099751 0.07810821 -0.00921061
0.09092735 -0.40659362 -0.63264525 0.06738194 0.28978026 -0.31945974 -0.35190046 0.005821165
-0.19384049 -0.36294633 0.031008705 -0.34209025 -0.03542255 -0.37954733 0.2257878 -0.10680696
0.12928762 0.20478544 0.13084018 0.34684384 -0.16872248 -0.017418109 -0.056698654 0.12287112
0.24545768 -0.23129913 0.37745833 -0.6841089 -0.08284671 0.144716 -0.6539929 0.09623647
0.19879879 -0.18953718 0.5732221 0.55516404 0.28065825 0.14712615 0.6479986 -0.09941787
-0.06717947 -0.13996038 -0.55818033 -0.38525704 0.2470663 -0.79518175 -0.4963433 -0.016667807
-0.15887658 0.66494286 0.14862704 -0.6035388 0.094544776 0.09513772 0.3339686 -0.09504437
-0.32236043 -0.6722147 0.38159263 0.08121435 -0.20104724 0.34791738 -0.083315104 -0.15621941
0.33958244 -0.06454742 -0.1273998 0.35652706 0.06492584 0.13328463 -0.7367169 0.03674026
-0.10178533 0.41364792 0.39589497 -0.108827986 0.35784948 0.07740172 0.07524058 0.031559728
0.14701726 0.48091155 0.6273207 -0.07664567 0.22829662 -0.13708784 -0.16007107 -0.11691833
-0.016659718 -0.35659635 0.14694938 -0.2528838 -0.31864956 0.48455065 0.23129892 0.5414821
-0.06206205 -0.30584037 0.3401039 0.7494762 -0.20129424 -0.38788792 -0.03141675 0.17137931
-0.050117522 0.44038287 0.23386134 0.0037337188 -0.45007345 0.37201846 0.42357147 0.34696618
-0.32472768 0.09564525 0.52551395 0.19568378 -0.2589247 -0.11987036 -0.051569615 0.8148988
-0.39469382 -0.13272758 0.3284503 0.62619644 0.24360456 -0.62046224 -0.21217616 -0.09269879
-0.5206332 0.25896987 0.057761353 0.592751 0.11582334 -0.2543685 -0.27868566 0.6548338
-0.047476366 -0.5234015 -0.037869267 -0.22719201 -0.2927114 0.0078284405 0.247714 0.067470975
-0.17673738 0.3529374 -0.0655805 -0.08650317 -0.3808006 0.34724453 0.2930959 -0.39221248

fc3.bias f4 [2]
00000000: 994c b73d 29de 02be
0.08950157 -0.1278006
