DDPG_Critic1.pth (torch_old, 184350 bytes, 5 tensors)

fcs1.weight f4 [256, 48]
000000 fe 0f 1b bd 2a f8 33 3d bb 3a 46 3b 91 5f 61 bd
       -0.03785705 0.04393784 0.0030247408 -0.05502278
000010 ae ef 47 3d a4 aa c8 3c 29 26 c1 3b dc 31 dd 3b
       0.04881256 0.02449543 0.0058944416 0.0067503285
000020 89 06 b5 bd 42 de 48 3d cc 22 aa bb 4c c6 21 bd
       -0.08839137 0.049040087 -0.0051921364 -0.03949575
000030 04 eb 55 bc 08 92 da bb 2b 90 5b bc 1f 68 89 3d
       -0.01305652 -0.0066702403 -0.013401072 0.06709313
000040 8c b9 94 bd 10 3f 9d 3c 96 a5 92 3c 7c e3 5a bc
       -0.07261953 0.01919511 0.017901223 -0.013359901
000050 f6 95 b0 3d 5c 03 76 be 27 d2 37 3b 98 da 0c 3d
       0.08622353 -0.24024719 0.0028048845 0.034388155
000060 cc fa 26 bd 65 62 08 bd 56 8f d8 bc 5e cc 02 3c
       -0.040766522 -0.03329696 -0.026435535 0.007983295
000070 5c 9d 74 3c 86 a0 20 3d 3a 96 c3 3c db c0 6c bc
       0.0149300955 0.039215587 0.023875345 -0.014450277
000080 17 ab b2 3d 19 ae 10 bd cf c2 68 3b 63 09 98 3d
       0.08724039 -0.035322282 0.0035516506 0.074236654
000090 5b 25 9e bc ff 7a 91 3d 57 4a 32 bc db ac a2 bc
       -0.019304922 0.07103538 -0.010881982 -0.019857815
0000a0 3e 23 82 3d ce 2f cf bc 50 87 01 bc 66 f9 a8 3c
       0.06354378 -0.02529135 -0.007905796 0.020626735
0000b0 0c 52 f1 bd 8b 3d 86 be e9 a2 03 bd 52 0c 45 3d
       -0.11783227 -0.2621883 -0.032137785 0.048107453
0000c0 38 2f 93 3d c1 c2 06 be ab f6 14 3c a2 db 39 3e
       0.07186741 -0.1316023 0.009092013 0.1815019
0000d0 60 0f c3 3c 0e 15 54 be d0 27 b5 bb 5f 06 5d 3e
       0.023811042 -0.20711157 -0.0055284277 0.21584462
0000e0 84 47 9a 3b e7 92 97 3c 29 6e e2 bc f1 4b ee 3d
       0.0047082324 0.018502666 -0.02764042 0.116355784
0000f0 bc a1 44 bd 3a 1a 8f bd c1 c2 c1 3c 44 5e 04 3d
       -0.048005804 -0.06987424 0.023652436 0.03231646
000100 da 32 53 bc 79 a3 e7 3b 5c f6 35 bc 40 79 a3 be
       -0.012890542 0.007069048 -0.0111061 -0.31928444
000110 92 58 b3 3c 6b a2 3b 3e 69 90 97 3c e1 4d 81 be
       0.02189282 0.18323676 0.018501477 -0.2525473
000120 20 53 ab bb 77 01 dd 3c 0e 93 02 bd a3 71 84 3c
       -0.005228415 0.026978238 -0.031878524 0.016167467
000130 e4 c5 07 3d a3 6a 57 be 45 19 d2 3c 78 fc 50 bd
       0.033147708 -0.21036772 0.025646815 -0.051022023
000140 5b 98 6c 3d a6 26 6f bc 54 59 29 bb 2b 0d 0a bd
       0.057762485 -0.014596617 -0.0025840597 -0.033703964
000150 cd a4 63 3d 5a f6 43 bd 80 21 3a bb b6 bb 0e 3c
       0.05557709 -0.04784236 -0.0028401315 0.008711746
000160 f4 3c e4 bc 75 7e e0 3c 16 db e3 3a 74 31 f9 3c
       -0.027861096 0.02740405 0.0017384018 0.030419089
000170 35 94 90 bd 93 ac 5d 3e 4d 81 05 bc f5 27 b8 3d
       -0.07059518 0.21647863 -0.0081485035 0.08991996
000180 63 04 16 3e 95 d6 28 3e 24 a3 c9 bc 47 ce 96 bd
       0.14650111 0.16488107 -0.024613924 -0.07363563
000190 66 14 0c 3c ce 8d 4d be 13 d8 33 bd cc 0e a0 bc
       0.008549785 -0.20073625 -0.043907236 -0.019538306
0001a0 f3 4f ac 3d 06 33 b4 3d 73 ec 2e bc a5 3b ce bd
       0.084136866 0.087987944 -0.010676491 -0.1006997
0001b0 e3 5c 49 3c 37 e0 33 be 6b 2d cd 3c 11 77 1d bd
       0.012290212 -0.17566 0.025046071 -0.03844363
0001c0 58 67 64 3d ac 7c 65 3d c2 a1 da bd 6d ef 54 3d
       0.05576262 0.0560271 -0.10675384 0.051986147
0001d0 94 af b8 bd fd f8 43 be e1 89 30 bc ac a0 8d 3d
       -0.09017864 -0.1913795 -0.01077506 0.06915411
0001e0 2e 04 8c 3c cc fa 73 3d f0 1c dd bb b0 35 d9 bd
       0.017091837 0.05956535 -0.0067478344 -0.10605943
0001f0 ca 1d 01 3c d5 01 46 be 08 e4 83 3b 2b 84 01 be
       0.007880637 -0.19336636 0.004024986 -0.12648074
000200 f5 c1 49 bc 48 74 86 bb e2 89 8b bd 80 8e c5 3d
       -0.012314309 -0.0041032173 -0.068134084 0.0964632
000210 56 78 82 3b 5b 8a 3c be 42 79 43 3c e5 b7 d9 3d
       0.0039816303 -0.18412153 0.011930766 0.10630778
000220 9f 02 ab 3d 0d 25 f3 bc 81 c9 07 3d 38 59 86 bd
       0.08350109 -0.029680753 0.033151153 -0.06559986
000230 03 8c b9 3c 8a bc 39 be 25 78 ed 3c 7f 5f ca bd
       0.02264977 -0.18138328 0.028987953 -0.09881496
000240 f4 0f ad bb 63 ce 4b 3e 98 12 c3 3c 55 f6 c5 bc
       -0.005281443 0.19902949 0.023812577 -0.024165312
000250 1c 88 50 3d db 8a ed bd eb f7 2b bc 67 50 c1 3b
       0.050911054 -0.1159875 -0.01049612 0.0058994773
000260 cb 43 55 3c 01 c1 93 3e ea cf ae bd e7 aa 7d 3a
       0.013016651 0.28858188 -0.0853575 0.00096766505
000270 d7 1f a9 3d 65 1a e8 bc 93 43 35 bd 17 8d da 3d
       0.08258026 -0.028332898 -0.044253897 0.10671442
000280 37 d6 ac bc 50 ee bb 3e ce 16 2f 3d be 80 e5 3c
       -0.02109824 0.36705256 0.042746358 0.02801549
000290 d8 61 a5 3d 73 27 2b be 75 5c ca bc a1 bc 2e 3d
       0.08075303 -0.16714267 -0.02470229 0.04266036
0002a0 c0 2a 22 3e 11 ec 6a bd 44 c8 7f bd 95 26 59 bd
       0.1583662 -0.057354037 -0.062446848 -0.05301531
0002b0 41 63 52 3d 16 3f fa bd 87 7c 98 bd 1e 7d ba 3b
       0.051364187 -0.12219064 -0.07445627 0.0056911847
0002c0 51 4c 2d 3e 76 c1 82 bd 15 88 6f 3b 95 09 8c bd
       0.16923644 -0.06384556 0.0036549617 -0.06837765
0002d0 fb 98 39 bd ec 16 d1 bd 2b c2 f9 bc c2 c1 b6 bd
       -0.04531191 -0.1020945 -0.030488094 -0.08923675
0002e0 99 11 e7 3c 2c a4 a2 bd 62 4a 01 3b 6a 9a e6 3c
       0.028206633 -0.079414696 0.0019728174 0.028149802
0002f0 1b 12 3b be 06 87 1b be 61 6a f0 bc 39 3d c9 3c
       -0.18268625 -0.15188226 -0.0293476 0.024565326
000300 b8 d8 8d 3c b8 a2 a5 3e e3 61 24 bc c3 b7 69 3d
       0.017315254 0.32350707 -0.010033104 0.057060014
000310 c9 e8 21 bd 3b 0c 8a 3c c9 61 2c 3d d6 ad a8 bc
       -0.03952864 0.016851535 0.042085443 -0.020590704
000320 5c 7e f7 3d 2e 16 c7 3e 45 bd 85 3c 40 5c 62 3d
       0.12084648 0.3888411 0.016325602 0.055263758
000330 e6 f2 63 bd 1c 3a 44 be 2c 1f 24 3d c6 1b 39 3d
       -0.055651568 -0.19162792 0.04006879 0.045192502
000340 f3 2e 18 3e 12 04 ba 3e c1 ee e4 3c 59 a6 14 bd
       0.1486166 0.3633123 0.027945878 -0.036291454
000350 d3 b8 56 bd 59 29 b4 be b6 cc aa 3c 9d 57 00 3d
       -0.052422356 -0.35187796 0.020849567 0.031333555
000360 af 52 e9 3c 9f 68 48 3e 2e e7 e6 bb 93 75 d6 3c
       0.02848181 0.1957116 -0.0070466017 0.02617911
000370 c3 88 83 3d 66 00 2d bd 8d a6 63 3b 2d 7c 26 bd
       0.064225696 -0.042236708 0.0034736723 -0.040645767
000380 9c 89 fb bc 11 42 3b 3e 03 20 d0 bc 65 08 a8 bd
       -0.030705266 0.18286921 -0.02540589 -0.08204726
000390 ed fd 59 3c ee 51 5a be 66 26 08 bd ba c8 96 bd
       0.0133051695 -0.21320316 -0.033239745 -0.07362504
0003a0 d5 53 bd 3d f2 3a 3c 3e 1e e2 a2 3c f4 70 e6 bc
       0.09244505 0.18381861 0.019883212 -0.028130032
0003b0 5d b5 4e 3d ea 97 b2 be 36 c2 28 bb 47 16 26 bd
       0.05046593 -0.34881526 -0.0025750524 -0.04054859
0003c0 58 b5 77 3d 59 7d 77 bd d3 19 e8 3c 58 28 de bb
       0.060475677 -0.060422275 0.028332626 -0.0067797117
0003d0 ab 3c 96 3a f0 28 02 3c 55 24 d3 bc b7 09 08 3d
       0.0011462172 0.007944331 -0.02577416 0.03321239
0003e0 84 3e bd 3d 30 12 c5 bd 7c a9 0e 3c 72 8f 44 bd
       0.092404395 -0.096226096 0.0087074 -0.047988363
0003f0 d5 d4 fd bd 85 d0 32 bc b0 70 c1 3c 29 12 48 3d
       -0.1239411 -0.010913973 0.023613304 0.048845444

fcs1.bias f4 [256]
000000 36 4a 12 3e a9 7e 77 bd 0a 56 99 bd 8d e6 8d bd
       0.14286122 -0.060423527 -0.07487114 -0.0692874
000010 ca 81 89 3d 21 f8 03 be c8 fd 70 be 9c af f2 3d
       0.067142084 -0.12887622 -0.2353431 0.11849901
000020 b6 64 fe 3c 1d 8b c4 3d 85 62 44 bd ad c2 d9 3d
       0.031053882 0.09596846 -0.047945518 0.106328346
000030 fc 0c 12 3e ec 6b 89 be 8d 56 83 be 3a 85 9a bd
       0.14262766 -0.2684015 -0.2565197 -0.07544942
000040 f4 25 5b be 28 f3 6d be 94 34 e8 bd 29 45 0a 3e
       -0.21401197 -0.23237288 -0.113381535 0.13502945
000050 ce 5f 0a 3e e4 ac bb bd 1c fd f4 3d d6 34 3e be
       0.13513109 -0.09163836 0.11962339 -0.18574843
000060 f8 77 30 3e 2a fb fd bd b9 ff 24 bd 21 21 16 3d
       0.17233264 -0.12401421 -0.04028294 0.036652688
000070 34 3b 8f bd 24 32 2d be 68 cf 71 be 10 c6 21 3e
       -0.06993714 -0.16913658 -0.23614275 0.15798211
000080 15 01 90 3e 12 44 8d 3e 5f d9 88 3e 95 cc ad be
       0.28125826 0.27590996 0.2672834 -0.33945146
000090 52 90 63 3e bb 6e 93 be 47 91 43 be 16 ca b2 3b
       0.22223023 -0.28795418 -0.19098388 0.0054562194
0000a0 2f 97 a7 bd 5a 4e 47 bd a7 92 87 3e 24 ec 31 3d
       -0.08183133 -0.048658706 0.26479074 0.043438092
0000b0 12 32 f9 bd 7f c0 3a 3d be 60 22 bc ce 9a f8 bd
       -0.12167753 0.045593735 -0.00991076 -0.12138902
0000c0 4d 34 e4 bb dd 91 3e 3e 8a 5c d1 be 5b af d3 3d
       -0.0069642426 0.1861033 -0.40890914 0.10336181
0000d0 70 16 24 bd 7b c5 ff 3c 66 c9 5d be ef 3b 25 3d
       -0.04006046 0.031222096 -0.21658859 0.04034036
0000e0 00 85 58 bd df 5e 44 3e 94 5e d2 3d 3d 16 07 bd
       -0.052861214 0.19176815 0.102719456 -0.032980192
0000f0 93 02 24 3d 52 28 cc bd 36 db dc bd 29 94 66 3d
       0.040041517 -0.09968628 -0.10783999 0.05629364
000100 95 88 b7 bd 78 99 14 3e 44 2a dc bd 81 ce 38 be
       -0.08961598 0.14511669 -0.10750249 -0.18047525
000110 d2 58 6e be d1 f8 05 be ae 30 62 3e 33 38 9c 3d
       -0.2327607 -0.13083197 0.22088882 0.07627907
000120 33 22 78 be 7c 36 57 bd f9 64 d4 3e 39 3b 87 3d
       -0.24231796 -0.052542195 0.41483286 0.06603093
000130 ad 57 14 3e 3a a5 cf bd 3a b6 c4 bb 1d e3 25 be
       0.1448657 -0.10138936 -0.0060031684 -0.16199918
000140 54 c3 4b 3d 46 87 a5 3e 81 e0 84 3e fa d2 f4 bd
       0.049746826 0.32329768 0.25952533 -0.11954303
000150 5d 06 07 be d6 4d 8b 3d 4f 09 10 be 94 28 99 3c
       -0.13186021 0.068019554 -0.14066051 0.018696107
000160 50 a5 5b 3e 42 97 f4 bd 65 14 c0 3d cf 2e c0 3d
       0.2144978 -0.11942913 0.0937889 0.09383928
000170 df 5f 4e 3e 92 58 e9 3d 5a da b9 3d 44 fb 2e be
       0.2015376 0.113938466 0.090748504 -0.17088038
000180 a5 fe 6a 3d 9a ba 68 be b8 08 71 3e 80 c2 67 3d
       0.057371754 -0.22727433 0.23538482 0.056581974
000190 ac cb 47 be 36 c5 ed bd 76 b0 db 3e 38 8e 10 3c
       -0.19511288 -0.116098806 0.42908067 0.00882297
0001a0 5e 1b 0f bc 49 8a 22 bd 81 9e 43 bd a4 71 43 be
       -0.008734552 -0.03968266 -0.047758583 -0.19086319
0001b0 88 e0 35 3e f1 43 16 be 1c 8f 4f bd 8a 74 e2 3d
       0.17761433 -0.14674355 -0.05067359 0.11057384
0001c0 95 41 bf 3d 70 c6 93 bd 43 f2 3b bd fa 5f b1 3d
       0.09338681 -0.07215583 -0.045885336 0.08660884
0001d0 ec b1 bd bd e2 93 76 be b8 9b 29 be 8d b6 6d be
       -0.092624515 -0.2407985 -0.16563308 -0.23214169
0001e0 28 c7 b7 bd 3a 9f a7 be e5 9a cf be 64 6d 35 bd
       -0.08973533 -0.32738668 -0.40547863 -0.044293776
0001f0 42 47 35 bd cb 13 d3 3d 98 c6 0e be d2 b9 d8 3e
       -0.04425741 0.103065096 -0.13942945 0.4232927
000200 e9 64 ed 3c f7 18 fe 3d a4 8f 84 3d 5e 9e d3 3c
       0.028978782 0.124071054 0.0647271 0.025832351
000210 59 2e f2 bd c1 8b af bd 3e d2 e8 3d 38 13 85 3e
       -0.11825246 -0.08571578 0.113682255 0.25991225
000220 04 4f 41 be 32 04 29 bd 2e eb 55 3e 9e d1 1e be
       -0.18877798 -0.041263767 0.20890495 -0.1550965
000230 58 bd 1a 3d 93 3f ac bd 96 1d 93 be 99 3f 0a be
       0.03777823 -0.08410563 -0.2873351 -0.13500823
000240 2b fe 70 3e 7f 02 87 3d c0 df 14 3e b9 62 4b bd
       0.23534457 0.06592273 0.14538479 -0.049654696
000250 39 bb 1d 3e 6e 8d 5a 3d 27 55 23 3e 4c b2 5b 3c
       0.15403451 0.053357534 0.15950452 0.0134092085
000260 02 16 83 3e bd d0 65 be 1a b5 38 3d 1e 75 fb bc
       0.25602728 -0.22442909 0.045094587 -0.030695494
000270 f7 e3 d5 bc 98 26 0e 3e 3e 66 81 3d f8 4a 3e be
       -0.026109679 0.1388191 0.06318329 -0.18583286
000280 72 c1 90 bd 62 e8 23 bd 28 bf 37 bd 23 40 26 be
       -0.07068147 -0.04001654 -0.044860035 -0.16235404
000290 b5 3d be bd 5b d9 b8 3d 00 ba 68 3e 83 8e 3e 3e
       -0.092891134 0.09025832 0.22727203 0.18609051
0002a0 6d 87 6f 3c c3 06 0d bd bb 55 53 3e d9 f7 04 bb
       0.01461969 -0.034430277 0.20638172 -0.002028933
0002b0 43 59 1a bc 83 15 03 3d ee 57 82 bc ca b3 35 bc
       -0.009420696 0.032002937 -0.015911069 -0.011090228
0002c0 04 b6 fb 3d eb f4 c0 3b 24 07 c4 bd 06 b9 1f 3e
       0.12290576 0.0058885715 -0.095716745 0.15597925
0002d0 f3 ab 4a 3e 8d ea 26 bd c5 73 11 be aa 89 75 be
       0.19792156 -0.04075103 -0.14204319 -0.23978296
0002e0 51 cd 66 be 24 86 c0 3a a7 35 4e 3e c0 e1 9c 3c
       -0.2253926 0.0014688415 0.20137654 0.019150615
0002f0 5a 5e b9 bb 6e f0 a9 3d f5 58 dc 3c c3 85 7b 3e
       -0.0056569995 0.082978114 0.026897887 0.24562745
000300 54 ed 21 bd 67 58 52 3d 39 ef 2a be e8 98 40 3e
       -0.039532974 0.05135384 -0.16692819 0.18808329
000310 53 57 52 be 9d 57 60 be 19 ef 14 bd a7 ae b6 bd
       -0.20541124 -0.21908422 -0.036360834 -0.08920031
000320 45 e5 40 3d 80 be 02 3e c8 e5 a5 3d 8b 23 2a be
       0.04709365 0.12767982 0.08100468 -0.16615121
000330 aa 66 bc 3d 95 fc 12 3d 5d da 26 3e e0 4a ea be
       0.09199269 0.035885412 0.16294236 -0.4576025
000340 01 ea 3a bd b8 92 cd 3d ee e5 0f be a3 7e 8b be
       -0.04563332 0.1003775 -0.14052555 -0.27245054
000350 e6 e0 d3 bc 7c 92 e0 3e 64 6c 80 bd ea 71 62 3e
       -0.025864076 0.4386176 -0.06270674 0.22113767
000360 1a 84 7a bd bb 72 4f bc 0c 47 3e bd 16 f5 fe bb
       -0.061161138 -0.012661631 -0.046454474 -0.0077806814
000370 4a 1d 05 3e ab 89 73 be 04 82 3b be cc 4f ac 3d
       0.12999454 -0.23782985 -0.18311316 0.084136575
000380 98 71 e3 3e 50 4b 3d 3e 04 27 d6 3d f6 52 07 be
       0.44422603 0.1848576 0.104566604 -0.13215241
000390 15 ab 6e 3e e0 00 36 be 28 29 4e be 06 5b 80 3e
       0.2330745 -0.17773771 -0.20132887 0.25069445
0003a0 ce 22 54 3c a1 81 00 be 7e f5 ed bd 6c 60 4e be
       0.012947751 -0.1254945 -0.116190895 -0.2015397
0003b0 3a ee b7 bc 2d e7 af 3d 73 84 85 bd 5a 62 c7 bd
       -0.022452462 0.08589015 -0.06519403 -0.09735556
0003c0 cf b7 58 3e 64 3e 98 be ca 96 84 bd e6 5b aa 3e
       0.21163867 -0.297351 -0.06474073 0.33273238
0003d0 5a 0f 82 3b 08 1b d6 3d e8 29 a4 bd 1f cb 69 bd
       0.003969115 0.104543746 -0.080158055 -0.057078477
0003e0 1c 4e b8 3b 18 02 d3 3e ec 5b 2c 3d cd 36 c3 3d
       0.0056245457 0.41212535 0.04207985 0.09531937
0003f0 6d a7 05 3d 27 4e 10 bc ce 49 25 be 91 dd 1b be
       0.032630373 -0.0088076955 -0.16141436 -0.1522124

fc2.weight f4 [128, 258]
000000 81 d2 7d bd f7 64 d9 3b 70 47 e4 3d a6 14 83 3d
       -0.06196833 0.0066343504 0.11146438 0.06400423
000010 4c 0b 14 bd 7e 30 f6 3c a6 25 eb 3d 30 52 4d 3d
       -0.036143586 0.03005242 0.1148179 0.05012721
000020 42 81 0e be 4e e4 87 be ad 87 32 bd 4a ca 0b be
       -0.13916495 -0.2654137 -0.04358642 -0.13651386
000030 62 d4 01 3e b2 57 b2 3d 5d cd 4a 3c b7 a5 88 bc
       0.12678674 0.08708133 0.012378064 -0.016680581
000040 14 76 b5 3c 81 fe 85 3d c3 05 f7 bd ca 5d f6 3d
       0.02215103 0.065426834 -0.12061646 0.120296076
000050 58 89 29 3d 60 21 17 be d4 ef c8 3d 76 c0 89 3c
       0.041390747 -0.14758825 0.098113686 0.016815405
000060 da c1 4b bc af a4 8e 3d 61 5e 05 be 02 ae e8 bc
       -0.0124363545 0.06965005 -0.13024284 -0.028403286
000070 49 20 86 3d 98 05 4f be 1b 0f c1 bd f5 86 81 bd
       0.06549127 -0.20216978 -0.09426709 -0.06324569
000080 78 e6 61 3d bb f6 99 bd 40 6c 79 be 15 e8 38 3e
       0.055151433 -0.07517763 -0.243577 0.18057282
000090 99 ed aa bd ef b2 2f 3e 52 08 b7 3d 2e 93 89 3d
       -0.083460994 0.17158101 0.08937134 0.067175254
0000a0 70 2d 69 3d 7c f6 eb bd 9d 08 7c bc d2 e7 9d 3c
       0.0569281 -0.115216225 -0.015382913 0.01927558
0000b0 10 53 b9 3c ed 44 dc bb 6f de 07 3d 5a 0a ab 3d
       0.022622615 -0.006722084 0.033171114 0.08351584
0000c0 29 38 33 3d 26 f0 ec 3c 45 1b 6b 3d ba ef 9b bc
       0.04375473 0.028923105 0.057399053 -0.019035209
0000d0 50 e6 cf ba 9d 2c 80 bc ee 23 1d 3e 5c 41 eb 3d
       -0.0015861485 -0.015646273 0.15345737 0.11487076
0000e0 9c b0 2a 3e 69 b0 29 be b5 65 74 3e ab 25 ae 3d
       0.16668934 -0.16571201 0.23866923 0.08503278
0000f0 93 78 b4 bd 6a 08 03 be 43 d2 a7 3b 59 dc 88 3d
       -0.0881206 -0.12796178 0.0051215007 0.06682653
000100 8d 36 16 3a dc 4e 32 bd 8e 54 84 3c 5e f0 14 bd
       0.00057301746 -0.043532237 0.0161536 -0.036362045
000110 ee 27 9c bd 0c 9f 81 3d c6 39 c8 3b 60 59 ab bc
       -0.076248035 0.06329164 0.0061104028 -0.02091664
000120 65 4f eb 3b d2 47 d7 3c 03 2b c7 bd be 16 b1 bc
       0.0071810954 0.026279364 -0.09725001 -0.02161729
000130 47 6d 88 bd b9 24 fe 3d cb 5a 52 3d f8 1a 03 bd
       -0.06661468 0.12409348 0.05135612 -0.03200814
000140 00 d6 7a 3c 7f 4c bd bd 37 85 d7 3d 8b 39 7b bc
       0.015309811 -0.09243106 0.105234556 -0.0153335435
000150 27 11 ac 37 da 69 2a bd 17 a7 e6 3c 27 05 ef 3c
       2.0511985e-05 -0.041604854 0.028155847 0.029177262
000160 54 2e ca bc 52 2f 10 bb 59 1c 1a 3e c6 ed 43 3e
       -0.024680294 -0.0022000861 0.15049876 0.19133672
000170 85 16 e5 bc 70 43 96 3c e9 6f 3e be 26 78 94 3c
       -0.02796484 0.018342704 -0.18597378 0.018123697
000180 46 ec 46 be e3 17 33 3d ee 0b 4d bd d2 ff 93 3d
       -0.19426069 0.043723952 -0.050060205 0.07226528
000190 af d3 a6 bd f2 c3 d7 3d b6 b3 66 bc a1 e3 4f bb
       -0.08145844 0.105354205 -0.014080932 -0.003172137
0001a0 78 eb e3 3c 6b 74 c9 bd f3 31 55 3d cd b8 63 bd
       0.027822241 -0.09836658 0.05204959 -0.05559616
0001b0 47 72 7b 3d bd b5 bc 3d 33 15 18 3d ab d9 20 be
       0.06138828 0.09214351 0.037129592 -0.15708034
0001c0 27 57 ea 3c cc 30 6f 3d 2f 47 fb bd 3d 6d bb bc
       0.02860601 0.058396146 -0.122694366 -0.022879237
0001d0 85 0f 12 3d f9 24 2b 3e 28 97 32 bd 0b 16 92 ba
       0.03565933 0.16713323 -0.043601185 -0.0011145485
0001e0 c8 4e 9a 3d 4d da 8e 3d 81 f3 51 bc ae 91 87 3d
       0.075345576 0.06975231 -0.0128144035 0.06619583
0001f0 44 63 57 3d 7c 00 4c bd b1 cc d0 3c 42 98 2a be
       0.0525849 -0.04980515 0.02548823 -0.16659644
000200 a8 b1 7f 3d 33 03 6a bc 7d 35 e2 bd fc 3c 5e 3d
       0.062425286 -0.014282989 -0.11045358 0.054257378
000210 02 9a 93 3d 3e e9 19 3d 87 12 a2 bd 9d b4 3d bd
       0.07207109 0.037575953 -0.0791369 -0.046314824
000220 ed bb dd bd 3f a5 14 3d de d9 c7 3c 84 22 bd bd
       -0.108268596 0.036290403 0.02439588 -0.09235099
000230 90 6c 55 bd b4 12 b7 3d b6 7c 72 3d c5 5f f9 bb
       -0.052105486 0.08939114 0.059200965 -0.0076102936
000240 e9 cc 7a bd c3 50 53 3c 97 76 5f bd e0 a5 33 bd
       -0.061230574 0.012897673 -0.054556455 -0.043859363
000250 41 59 3d bf 58 2b e1 bd 20 82 98 be 50 7c c4 bc
       -0.73964316 -0.10994595 -0.29786777 -0.023985058
000260 bd f8 97 3b c8 cd b3 3e 32 6b 94 bd 85 9e 72 3c
       0.004637806 0.35117936 -0.072470084 0.014808302
000270 7b a3 e2 bd 5b c4 f7 3d 64 f3 1b 3d ca e3 73 3d
       -0.11066338 0.12097999 0.038073912 0.05954341
000280 00 28 1f 3c aa 71 66 3d d9 f6 3a 3d 3c 56 0a be
       0.009714127 0.056260742 0.04564557 -0.13509458
000290 6a 36 2b bd 67 88 dc 3d 14 75 d0 3d ff e3 e0 bc
       -0.04179994 0.10768204 0.10178581 -0.027452467
0002a0 df f3 18 3d b2 f4 ad bd 65 cc dd 3d a5 f0 96 3e
       0.03734195 -0.084939376 0.10830001 0.29480472
0002b0 bb 95 2b bd 65 ff cb 3c fa 8d f3 3c 51 61 80 3d
       -0.04189084 0.024902055 0.029730786 0.06268562
0002c0 cb 68 3a be ee 20 d4 3d ef 06 32 3c 6a be 71 3d
       -0.18204038 0.10357843 0.010865911 0.059019484
0002d0 16 3a 0f 3c 2a 6e 69 bd 1f 4a e3 bb d2 07 4f be
       0.008741876 -0.056989826 -0.006936326 -0.20217827
0002e0 4c 2a e4 bc 62 a5 c3 3c b9 55 59 3c 14 3e 4a bd
       -0.0278522 0.023882572 0.013265067 -0.04937561
0002f0 f3 94 77 bd 0b ab f4 3c 5a 4a 9e 3c 76 be 5b 3d
       -0.060444783 0.029866716 0.019322563 0.053648435
000300 14 a4 2c 3e b0 cd b5 bd 62 64 b7 3d ae 44 c0 3d
       0.16859466 -0.088771224 0.089546934 0.093880996
000310 16 cd a5 bc af 34 65 3d 81 1e bf 3c d8 e9 17 3c
       -0.020239394 0.055958446 0.023329975 0.009272061
000320 d9 11 38 bd 16 87 26 3b 38 5b fc be fc ce e3 bc
       -0.044938896 0.0025410107 -0.49288344 -0.027808659
000330 31 38 fc bd 78 8c 3d bc 33 6b 48 bd 83 54 4a be
       -0.12315405 -0.011569135 -0.04893036 -0.19758801
000340 2a ab 85 3c 65 a4 8c 3d f9 cd 39 bd 5b 30 20 3d
       0.016316969 0.06867293 -0.045362446 0.039108615
000350 23 2d 4e bc 05 18 41 bd f2 b5 38 bd 00 d3 b8 bd
       -0.012584004 -0.047142047 -0.04509539 -0.0902462
000360 ee e5 e7 3b 48 f3 5a bd f9 72 b4 3d bb f9 a9 bc
       0.0070769703 -0.053454667 0.08810992 -0.020748964
000370 01 2c 00 be 63 29 1a be e3 fc 30 bd c4 c7 05 bd
       -0.12516786 -0.1505485 -0.04320992 -0.032661214
000380 78 7e 6a be f3 e2 da bd 5b 6c 99 bd 7a c7 36 bd
       -0.22899806 -0.106878184 -0.0749137 -0.04462383
000390 9d c6 14 be 03 18 55 3c 18 fe 1c bd 22 a1 3c be
       -0.1452889 0.013006213 -0.03832826 -0.18420842
0003a0 1f 10 fa bc 7b 4d 81 3c 38 87 8d 3d ad 81 2c 3c
       -0.030525265 0.015784016 0.069105566 0.010528964
0003b0 4f ac 52 bc 3e 3d e0 3b 92 65 0f be a8 65 45 bd
       -0.012858464 0.006843238 -0.1400359 -0.04819265
0003c0 62 26 5f 3c 62 d6 3d 3d 49 26 b2 be 7a 13 39 be
       0.013619991 0.04634703 -0.34794834 -0.18073836
0003d0 4d 96 64 3c 87 a6 b7 be 35 31 fd bd 46 f9 41 bc
       0.01395185 -0.35869238 -0.12362901 -0.011839217
0003e0 b5 7a 5e bd ad 50 94 bd 85 45 a7 3d fe 2b 17 bc
       -0.05431624 -0.0724195 0.08167557 -0.009226797
0003f0 b1 94 03 3d 41 04 0f be fe 26 05 3e eb 68 af 3c
       0.032124225 -0.13966466 0.13003156 0.021412333

fc2.bias f4 [128]
000000 a2 16 75 3d 5b 47 6b 3d 2f 3f b7 bd 2b 02 8c b8
       0.059836037 0.057441097 -0.08947598 -6.676124e-05
000010 68 4b 14 bd ae ec d3 be 40 e5 fa bb 75 5f 91 3c
       -0.036204726 -0.4139151 -0.0076567233 0.017745713
000020 3d 31 0b 3e 68 28 dc bc 4b 2c 04 be 05 7c 8a 3c
       0.13593002 -0.026874736 -0.12907521 0.01690484
000030 6b ff 57 bd 13 e9 c3 3d e9 f6 db bc 6a 28 43 bc
       -0.05273382 0.0956594 -0.026851134 -0.011911491
000040 e6 ed e5 bb 18 8c 8d 3a e6 0c 88 3c b7 fc 9f 3c
       -0.007016885 0.0010799197 0.016607713 0.019529684
000050 ff aa 19 3e 94 81 3a be 9a ad a1 bd 5b 78 34 bc
       0.15006636 -0.18213493 -0.0789444 -0.011015023
000060 f2 6c fa bd bd 49 9d bc a1 20 75 bd 90 ff 85 3d
       -0.12227811 -0.0192002 -0.05984557 0.06542885
000070 3c 84 0e bd f4 0b 73 bd 40 c7 2b 3d 1d e2 4a be
       -0.034794077 -0.05933757 0.041938066 -0.19812818
000080 da 86 bb bb 85 46 1c 3d 41 28 16 be 4f 1f 0b bc
       -0.0057228627 0.03815319 -0.14663793 -0.008491351
000090 5c ce 2d bd c5 ba 91 bd 61 80 91 bd df 78 21 bc
       -0.042433128 -0.071157016 -0.071045645 -0.009855478
0000a0 1f 12 13 3d d9 66 a5 3d 37 20 9e 3d 9a 0c 6a bc
       0.035905953 0.08076257 0.07720988 -0.014285231
0000b0 8a 33 67 bc b8 1f 91 bc 79 04 4a 3d fa bb 39 3e
       -0.014111409 -0.01771532 0.04932067 0.18138114
0000c0 01 39 c1 bd 9e ea 4a 3c e5 80 36 3e 78 c2 ab 3c
       -0.09434701 0.012385039 0.17822607 0.020966753
0000d0 c3 ff 15 bc b3 9b 07 3e 14 8c 80 3c eb b4 90 bd
       -0.009155217 0.13242988 0.015691794 -0.07065757
0000e0 a9 cc 84 3c 72 32 b1 bd 60 72 d5 be 56 31 15 bd
       0.01621087 -0.086522 -0.41688824 -0.036424004
0000f0 4d 90 88 bd 55 a0 60 3c 88 14 60 3d 13 71 16 3d
       -0.06668148 0.013710101 0.05470708 0.03672893
000100 a1 96 3c 3d 42 fb 91 bc 97 10 95 bc 44 e4 58 3c
       0.04604209 -0.017820004 -0.018196387 0.0132380165
000110 a7 6d af bd 0d 3d 5c 3c b8 a1 53 3d a7 13 c3 3c
       -0.085658364 0.01344229 0.0516679 0.023813082
000120 a9 10 34 3d 20 d3 26 bd a5 43 e9 bc 6a e3 26 3d
       0.0439612 -0.04072869 -0.028474638 0.040744223
000130 2b ef 10 bd d7 14 b9 bd 1e f1 48 3b 8a 7d 52 bd
       -0.03538434 -0.09037178 0.0030661295 -0.051389255
000140 93 49 4b bd 7f 28 bb 3e 64 86 5a bd 4e 37 52 3d
       -0.049630713 0.36554334 -0.05335082 0.051322274
000150 34 50 bd bd e8 5f bb 3c d9 65 53 3c b5 f1 d0 bc
       -0.09243813 0.02287288 0.0129027 -0.02550588
000160 fa c0 3b 3d f0 b4 38 3c 90 70 ac bd 28 f9 24 bd
       0.045838334 0.011273608 -0.08419907 -0.040276676
000170 58 03 00 3e 8c 96 00 bc 20 67 25 3c b2 82 1b bd
       0.12501276 -0.007848393 0.010095388 -0.037966438
000180 bc 0d 6c 3c e6 63 f5 bb d2 17 32 bc fc e8 48 3c
       0.014407571 -0.0074887155 -0.010869937 0.012262579
000190 41 1b 89 3d 70 e7 63 3d 36 81 b9 3d de c2 ab bb
       0.066946514 0.055640638 0.09057848 -0.005241736
0001a0 75 3f be 3b 68 da c2 3c f6 b5 9c bd 1e 8c 9d bc
       0.0058059045 0.023785785 -0.07651894 -0.019231852
0001b0 64 31 1c 3a bb c2 c8 3d 98 2c 9c bc ef 64 8d 3c
       0.00059582875 0.09802767 -0.019064233 0.017260043
0001c0 87 bd 32 bd 21 ad e7 ba 22 2e 6a bd 43 57 cf 3c
       -0.04363778 -0.0017675498 -0.057172902 0.025310164
0001d0 70 8b 0e 3d 63 20 22 3e 4d 58 2e bd 44 df 3e bd
       0.034800947 0.15832667 -0.04256468 -0.04659964
0001e0 7d 90 80 bd 91 54 c5 bd 59 a1 f5 bc f2 87 9e bc
       -0.06277559 -0.096352704 -0.029984163 -0.019351933
0001f0 3c 19 cb bd 19 6d a0 bd 33 32 a2 bd e9 9d db be
       -0.099169225 -0.07833309 -0.07919731 -0.42893913

fc3.weight f4 [1, 128]
000000 45 2e 74 bc f2 7f a9 bd a0 8a c1 3c 29 be 35 3d
       -0.01490361 -0.08276357 0.023625672 0.044370804
000010 be 9e 04 3d 04 f8 23 3e f5 58 95 3d cd fc 46 bd
       0.03237795 0.16012579 0.07292358 -0.048580933
000020 34 ea 9f bc 19 a3 a5 bc 8b 2a e0 3d 1d e2 e4 3c
       -0.019520856 -0.020219373 0.109456144 0.02793985
000030 50 aa cd 3c 46 0b 15 bd 75 85 09 3d 61 4c bb 3c
       0.025105625 -0.036387704 0.03357454 0.022863569
000040 46 73 76 3d 86 ba 6b 3d 45 73 81 3c 2e a8 10 3d
       0.060168527 0.05755093 0.015802035 0.03531664
000050 2a b4 a4 bc e5 71 fd bc 39 9e 6e 3d ce a9 9d 3d
       -0.02010544 -0.030938098 0.05825636 0.07698403
000060 8c c2 71 bd 95 a8 68 3c bf 2f fb 3c df 35 89 3c
       -0.059023425 0.014200349 0.030662416 0.01674932
000070 9a ab 82 3d 87 c8 09 3d 9f 48 74 3d 15 9b 78 bd
       0.06380387 0.033638503 0.05963957 -0.060694773
000080 0d 64 49 3d 91 be ab bd 30 83 b8 bd b8 fe 09 bd
       0.04916768 -0.08385957 -0.09009397 -0.033690184
000090 28 ba ad 3c 03 55 5b 3d 8b 83 62 bd 3d 1d 9f 3d
       0.02120693 0.05354787 -0.05530123 0.07769249
0000a0 cb 61 44 3d ab 5f c7 3c b3 92 dd bd fd ad 87 bb
       0.047944825 0.02433761 -0.10818996 -0.004140614
0000b0 f4 ae aa 3d ac 1c 1e 3d 88 94 eb bd 2f 57 8c 3c
       0.08334151 0.038601562 -0.115029395 0.017131416
0000c0 17 b1 02 3e ac fd aa bd 38 fd 36 bd 59 dc be bd
       0.12762867 -0.08349165 -0.044675082 -0.09319372
0000d0 fd 5c 92 3c 27 43 98 bc af 01 05 3d e7 06 30 3d
       0.017866606 -0.018586708 0.03247231 0.042975333
0000e0 17 16 44 bd 32 f3 58 3d 83 bf fa 3c eb e1 a3 3d
       -0.04787263 0.052966304 0.030608898 0.08002075
0000f0 c6 de 83 3d 88 94 81 3d 19 f9 05 bd 53 db 4a 3d
       0.06438975 0.06327158 -0.03270826 0.04952557
000100 00 a6 05 3d 48 90 85 bd fe 28 50 bd 9b 50 81 bc
       0.032629013 -0.0652166 -0.050820343 -0.015785506
000110 7d 29 bc 3c 15 aa b8 3c 03 c0 b9 3c de 36 a6 3c
       0.022969002 0.022542039 0.022674566 0.020289835
000120 84 b5 ce 3c 33 4b 15 3d 45 19 a4 3c c4 76 90 bc
       0.025233038 0.03644867 0.02003158 -0.017634757
000130 34 4c 13 bd c6 cf 60 bc 42 77 cb bd 2d b6 1b bd
       -0.035961345 -0.013721412 -0.09934856 -0.038015533
000140 d3 80 01 3d 33 39 05 bd fe 05 61 be 04 38 ec 3c
       0.031616997 -0.032525253 -0.21974942 0.028835304
000150 24 12 55 3d 8f ec 6c bd 29 77 18 3d cd 4a d2 bd
       0.052019253 -0.057842787 0.037223015 -0.10268173
000160 1e 26 46 bd 67 0f 94 bd 0e 3b db bd 98 50 41 bd
       -0.048376195 -0.072295 -0.10704623 -0.047196
000170 e0 04 0f bd a8 99 07 3d 40 0f 9b bd 4f bb 86 bd
       -0.03491676 0.033105522 -0.07571268 -0.06578695
000180 3d a0 22 bd c5 28 35 3d da 83 dc bd c9 76 6c 3d
       -0.039703596 0.044228334 -0.10767336 0.05773047
000190 7e ef 0e 3d 9e 31 1a be 2d 27 40 bd 3c ce 51 bd
       0.034896366 -0.1505799 -0.04691236 -0.05122207
0001a0 2b c8 39 bd 1c 97 1a be 99 92 ba bd 90 2e 16 3d
       -0.04535691 -0.15096706 -0.091099925 0.0366655
0001b0 da b2 73 bc eb 99 ac bc 99 f9 d3 bc a4 90 d4 bc
       -0.0148741845 -0.021069488 -0.025875853 -0.025947876
0001c0 c1 d4 86 bd 9e 2d eb bc 1d c4 a4 3c 8d be bc 3c
       -0.06583548 -0.028708275 0.020113045 0.02304008
0001d0 30 39 91 3d c8 19 c0 bc 45 92 9f bd 72 e0 ba 3c
       0.07090986 -0.023449793 -0.077915706 0.022812102
0001e0 0f e6 a6 3d 4a 20 ac bd 6c 67 97 3d 71 a4 82 3d
       0.08149349 -0.08404596 0.07392773 0.06379021
0001f0 4e 9f 00 3d 35 50 63 be a2 c3 82 3d 2a e7 1b 3d
       0.031401925 -0.22198565 0.0638497 0.038062252
