DDPG_Actor2.pth (torch_old, 183840 bytes, 6 tensors)

fc1.weight f4 [256, 48]
0	0x3d5efd5d	0.054440845
1	0xbeb4516b	-0.35218367
2	0xbb953580	-0.004553497
3	0xbdacbba4	-0.08434227
4	0x3c2e123c	0.010624465
5	0x3df8465a	0.121227935
6	0x3a0391b0	0.00050189625
7	0xbcfdf1ea	-0.030999143
8	0x3d840bf2	0.06447591
9	0xbe92c2a2	-0.28664118
10	0xbcf81d38	-0.03028737
11	0xbe4b2db3	-0.19841652
12	0xbe818db3	-0.2530342
13	0x3e290fbe	0.16509911
14	0x3d012aec	0.031535074
15	0xbddc89ef	-0.10768496
16	0x3e0386a0	0.12844324
17	0xbddfc8f6	-0.10927002
18	0x3c9144fe	0.017733093
19	0x3d28ff2b	0.041258972
20	0xbe7fd845	-0.24984844
21	0x3e665c33	0.22496109
22	0x3d668f13	0.05628879
23	0x3de4114e	0.11136113
24	0x3bcab6ac	0.006186327
25	0x3db0069a	0.08595009
26	0xbda02ce5	-0.07821063
27	0xbd1d96ab	-0.038473766
28	0xbc540d4d	-0.012942624
29	0x3d8befde	0.068328604
30	0x3c87debe	0.016585704
31	0xbd0703ca	-0.032962598
32	0x3def7c35	0.116936125
33	0x3db46021	0.08807398
34	0x3d042f93	0.032271933
35	0xbdde0399	-0.1084053
36	0x3e6eb088	0.23309529
37	0x3e2ad5d4	0.16683131
38	0xba17f53c	-0.00057967356
39	0xbd7b5982	-0.06136466
40	0x3dfa3351	0.12216819
41	0x3e047e37	0.12938772
42	0x3cd19e91	0.025588306
43	0xbeae9536	-0.34098214
44	0x3e849da6	0.25901526
45	0x3e6b7bc9	0.22996439
46	0x3d93f1d8	0.072238624
47	0xbe9e0f8c	-0.30871236
48	0x3ceb598c	0.028729223
49	0x3d516bb4	0.051128104
50	0xbc84d42a	-0.016214449
51	0xbb9e8514	-0.0048376415
52	0x3dcf3e32	0.10119285
53	0xbda619f1	-0.08110417
54	0x3c893cbe	0.016752597
55	0x3c9c1805	0.019054422
56	0x3d0cd542	0.034383066
57	0x3d435ebc	0.047697768
58	0xbd968e14	-0.07351318
59	0x382942b1	4.035485e-05
60	0xbd637c35	-0.055538375
61	0xbe0432bb	-0.12909977
62	0x3c806898	0.015674874
63	0x3d1f7812	0.038932867
64	0xbd489867	-0.048973467
65	0x3d6dc3a9	0.058047924
66	0xbd2ee391	-0.042697493
67	0x3d33b3da	0.04387269
68	0xbe3f1acd	-0.18662567
69	0xbea35665	-0.3190185
70	0xbd69d59f	-0.05708849
71	0xba7b051c	-0.00095756515
72	0xbe0b93c2	-0.13630584
73	0x3e246bd5	0.1605676
74	0x3c4e44e3	0.012589666
75	0xbcd537f1	-0.026027652
76	0xbe183553	-0.14864092
77	0xbdb11870	-0.08647239
78	0x3c0ecc43	0.008715692
79	0xbd9aae3e	-0.07552765
80	0xbe17092c	-0.14749593
81	0x3d8171b5	0.06320516
82	0x3c97e6d4	0.018542685
83	0x3dd09af9	0.10185809
84	0x3d4ea138	0.05044672
85	0xbe72f57d	-0.23726459
86	0xbc0884f6	-0.008332482
87	0x3d14abba	0.036296584
88	0xbe650575	-0.22365363
89	0x3e12032b	0.14259021
90	0x3cc3f033	0.023918247
91	0x3e07b411	0.13252284
92	0x3daabccf	0.08336794
93	0xbe96a8ff	-0.2942581
94	0xbd4007cd	-0.04688244
95	0x3e306eaa	0.17229715
96	0xbc16c88d	-0.0092030885
97	0xbdf17182	-0.11789228
98	0x3c83965c	0.016062908
99	0xbc1c3ac4	-0.009535495
100	0xbe00bdd4	-0.12572414
101	0x3e4bfb37	0.1992005
102	0xbc404893	-0.011736053
103	0x3daa903f	0.08328294
104	0x3d39f640	0.045400858
105	0xb95a7227	-0.00020832625
106	0x3c2be3ca	0.010491321
107	0x3d6b3dce	0.05743199
108	0xbe2914d9	-0.16511859
109	0x3e9121a3	0.28345975
110	0xbca5b6c8	-0.020228758
111	0xbcc9cf0e	-0.024634864
112	0xbc95ce61	-0.018286886
113	0x3d91c535	0.071176924
114	0xbd8901c0	-0.06689787
115	0xbd8d56d2	-0.06901325
116	0xbd8203b5	-0.06348363
117	0x3ec055b2	0.3756538
118	0xbda928be	-0.08259724
119	0xbd5dfd90	-0.054196894
120	0xbdcd4147	-0.10022216
121	0x3e57005f	0.20996235
122	0xbc20ba4d	-0.009810043
123	0x3c983d55	0.018583933
124	0x3db8a078	0.09014982
125	0x3e4b4e3e	0.19854066
126	0x3d6efc59	0.058346126
127	0xbb9e9f43	-0.004840763
128	0xbdb51fee	-0.08843981
129	0x3ebb57f6	0.36590546
130	0xbd38f8f7	-0.045159306
131	0x3d6198d3	0.055077385
132	0x3df4d97b	0.119555436
133	0x3e99c10e	0.30030102
134	0x3c8815b0	0.016611904
135	0xbd317b3a	-0.04333041
136	0xbc9946f6	-0.018710595
137	0x3ea6ea58	0.32600665
138	0xbd990e69	-0.07473452
139	0xbca131f4	-0.01967714
140	0x3d43defa	0.04782007
141	0x3eaeee4a	0.34166175
142	0x3d027a70	0.031855047
143	0xbd52a1fd	-0.051424015
144	0xbc729894	-0.014806885
145	0x3df06785	0.11738495
146	0xbad38371	-0.0016137195
147	0xbcb8f773	-0.02257893
148	0x3dbbeb97	0.091757946
149	0xbe707451	-0.23481871
150	0x3d3cf81a	0.046135046
151	0xbdb4b8b6	-0.08824293
152	0xbd4a7c56	-0.049434982
153	0x3dc0305f	0.09384226
154	0x3ce075eb	0.027399978
155	0xbcc55648	-0.024088994
156	0x3e0d7fe1	0.13818313
157	0xbe754bf2	-0.23954752
158	0x3ba2b7ab	0.0049657426
159	0xbab6ba47	-0.0013941013
160	0xbc7cfa50	-0.0154405385
161	0x3d96784e	0.07347165
162	0x3cb8746b	0.02251645
163	0xbd207e7c	-0.039183125
164	0x3e82b7cd	0.25530854
165	0xbe87acdf	-0.26499078
166	0xbd929833	-0.07157936
167	0xbc952001	-0.018203737
168	0x3e301246	0.17194471
169	0xbe732cd1	-0.23747565
170	0x3c496e8c	0.012294423
171	0xbc9f1927	-0.019421173
172	0xbe42b41a	-0.19014016
173	0xbe8b9717	-0.2726371
174	0x3d22ec14	0.039775923
175	0xbcb53e95	-0.022124568
176	0x3e69b0bf	0.2282133
177	0xbe8956af	-0.26823947
178	0xbb889965	-0.0041686767
179	0xbcbbf72f	-0.022945015
180	0xbddc971b	-0.107710086
181	0xbe917200	-0.28407288
182	0x3cf72ee3	0.030173725
183	0xbdb4b2fe	-0.088232026
184	0x3e99bb67	0.3002579
185	0xbe620243	-0.22071175
186	0x3dc0fd49	0.0942331
187	0xbd10d461	-0.03535879
188	0xbe48babc	-0.19602484
189	0xbe1dd2a8	-0.1541239
190	0x3c270699	0.010194444
191	0xbd449010	-0.04798895
192	0xbb898fec	-0.004198065
193	0xbbe55c49	-0.0069995266
194	0xbcf30179	-0.029663788
195	0xbe15a03d	-0.14611907
196	0xbcfa4596	-0.03055076
197	0xbe69be9e	-0.22826621
198	0x3d17d81c	0.037071332
199	0xbe304d40	-0.17216969
200	0x3d85e14e	0.06537114
201	0xbd86f7e5	-0.06590251
202	0x3d538961	0.051644687
203	0xbe08ed49	-0.13371767
204	0x3d3a26d0	0.04544717
205	0x3dbba4b3	0.09162273
206	0xbc7eb2bf	-0.015545546
207	0xbdbef7f5	-0.09324638
208	0x3dc3382d	0.09532199
209	0x3d8671d8	0.06564683
210	0x3c1e8655	0.009675582
211	0xbe0baf45	-0.13641079
212	0x3c10afaf	0.008830949
213	0x3e5d6fc8	0.21624672
214	0x3d555bc3	0.052089464
215	0xbe4f77b7	-0.20260511
216	0x3de592f0	0.11209667
217	0xbea483e8	-0.32131886
218	0xbcbb646a	-0.02287503
219	0xbdba70de	-0.09103559
220	0xbd241ada	-0.04006467
221	0xbe43de1f	-0.19127701
222	0x3d16059a	0.036626436
223	0x3cefc0f9	0.029266821
224	0x3d8ebf18	0.06970042
225	0xbede8267	-0.43458864
226	0xbd29a52f	-0.041417297
227	0x3ce370ff	0.027763842
228	0xbd557268	-0.05211106
229	0x3c8e8e14	0.017401733
230	0x3c4fc564	0.012681339
231	0xbd0c5fa4	-0.034270898
232	0x3c458765	0.012056206
233	0xbe6d9f33	-0.23205261
234	0xbe01d623	-0.12679343
235	0x3d826198	0.06366271
236	0x3d4981c3	0.049196016
237	0x3e434fb8	0.19073379
238	0xbd842e44	-0.06454137
239	0x3c2403e4	0.010010693
240	0x3d129262	0.035784133
241	0x3d6cd8b5	0.057823855
242	0xbcbde0f1	-0.02317855
243	0xbe5f54f0	-0.21809745
244	0x3bac93ea	0.005266656
245	0xbdf5c653	-0.12000718
246	0xbbc4f536	-0.0060106767
247	0xbe60d5b4	-0.21956521
248	0x3d899e4a	0.06719644
249	0x3d5cdab0	0.053919494
250	0xbce3d418	-0.027811095
251	0xbe30ad26	-0.17253551
252	0x3da294d6	0.079385445
253	0x3be06440	0.006847888
254	0xbd458e00	-0.048231125
255	0xbe34ddcb	-0.17662732

fc1.bias f4 [256]
0	0xbdf814ae	-0.12113319
1	0x3d9fbe62	0.077999845
2	0xbd670882	-0.056404598
3	0xbe1ada2f	-0.15122293
4	0xbe2f0941	-0.17093374
5	0xbda1762f	-0.0788387
6	0xbe23a039	-0.15979089
7	0x3b8ce81d	0.004300131
8	0xbdcdfada	-0.10057612
9	0xbcd5afd3	-0.026084816
10	0xbe5a2bf1	-0.21305825
11	0x3d11081b	0.03540812
12	0x3e178f99	0.14800872
13	0x3e2b3fb6	0.16723523
14	0xbe09a0ef	-0.13440298
15	0xbc0a1fd1	-0.008430437
16	0xbd1479b8	-0.036248893
17	0xbcec1ae6	-0.02882142
18	0xbe399ad6	-0.18125471
19	0x3e8a44b5	0.27005544
20	0x3dca83cc	0.098884195
21	0xbe9e2937	-0.3089082
22	0x3c2cb180	0.010540366
23	0xbddce88b	-0.107865416
24	0x3e5ed030	0.21759105
25	0x3dee4a03	0.1163521
26	0x3e05183a	0.12997523
27	0xbb9ba4c2	-0.0047498653
28	0xbdeaa436	-0.11457102
29	0xbd8ee690	-0.0697757
30	0xbd9a1f1c	-0.07525465
31	0x3d1ceb8f	0.038310584
32	0x3d6f373b	0.05840228
33	0x3e1f3319	0.15546836
34	0x3dde5ff5	0.10858146
35	0xbe4c3b97	-0.19944607
36	0xbe413bd7	-0.18870483
37	0xbc2c7faf	-0.010528489
38	0xbe90cd84	-0.28281796
39	0x3dd251b6	0.102694914
40	0x3d7ec0b7	0.062195506
41	0xbdd252dc	-0.102697104
42	0x3d56c2d8	0.05243191
43	0xbddb01c1	-0.10693694
44	0xbe6adf4b	-0.22936742
45	0x3da09ade	0.078420386
46	0x3d8e8520	0.06958985
47	0xbe721756	-0.23641714
48	0x3dd1939b	0.10233232
49	0x3e3ec1c4	0.18628603
50	0xbd7becad	-0.06150501
51	0x3d99192f	0.074755065
52	0xbd52c164	-0.051453963
53	0xbe1b03e4	-0.15138203
54	0xbb1c2954	-0.0023828344
55	0xbda04bb7	-0.078269415
56	0x3d01e3c3	0.03171135
57	0x397c7625	0.00024076605
58	0x3e7e1826	0.248139
59	0x3d9032a1	0.07040907
60	0x3e24aa25	0.1608053
61	0x3dbeac7a	0.09310241
62	0xbe3593b7	-0.1773213
63	0x3d937e74	0.072018534
64	0x3e45e238	0.19324577
65	0x3d813835	0.06309549
66	0xbdf4b790	-0.11949074
67	0x3e223625	0.15840967
68	0xbe2ca5eb	-0.16860168
69	0xbd792417	-0.060825434
70	0x3e06a22a	0.13147798
71	0xbe018971	-0.12650086
72	0x3d4e711a	0.05040083
73	0x3dd17418	0.10227221
74	0xbd17904b	-0.037002843
75	0xbcb4df5f	-0.022079168
76	0x3c548e68	0.012973405
77	0xbe1d7578	-0.15376842
78	0xbe1bb2b6	-0.15204892
79	0xbe339dc6	-0.17540655
80	0xbd95aea8	-0.07308704
81	0x3d982668	0.074292004
82	0x3dc56b59	0.096396156
83	0xbde08f02	-0.109647766
84	0x3de3face	0.111318216
85	0xbd529082	-0.051407345
86	0xbdfefa21	-0.12450052
87	0x3dc19df5	0.09453956
88	0x3e63e825	0.22256525
89	0x3e0edabf	0.13950633
90	0xbe37e3db	-0.17958014
91	0xbdc74a71	-0.097309954
92	0x3d6e16fa	0.05812738
93	0xbc08085f	-0.008302777
94	0x3d60ac1c	0.054851636
95	0xbd27f0f2	-0.041001268
96	0x3d83611f	0.06415009
97	0x3e03e68c	0.12880915
98	0xbcf2b706	-0.029628288
99	0x3d42f172	0.04759354
100	0xbe383ec4	-0.17992693
101	0xbe0df59e	-0.13863227
102	0xbd1b5c58	-0.037929863
103	0x3c9c06b2	0.019046161
104	0xbc56a788	-0.013101466
105	0x3d22587d	0.03963517
106	0xbd570fcb	-0.052505296
107	0xbe3e3f07	-0.1857873
108	0xbd3057f8	-0.043052644
109	0xbca28af2	-0.019841645
110	0xbda0dbb6	-0.078544065
111	0xbc4d7b76	-0.012541642
112	0xbd86fbd4	-0.06591001
113	0xbde3088d	-0.11085615
114	0xbde468c1	-0.11152793
115	0xbd6b83f4	-0.057498887
116	0xbe4a350d	-0.197468
117	0xbc4578ab	-0.012052695
118	0xbe8bb6be	-0.2728786
119	0xbde55ce5	-0.11199359
120	0xbe10ef2b	-0.14153735
121	0xbe2f9faa	-0.17150751
122	0xbe1dfce8	-0.15428507
123	0x3d2b293d	0.041787375
124	0xbd41cda8	-0.04731527
125	0xbd807b09	-0.06273467
126	0xbddef2e9	-0.10886175
127	0x3d3bd0d2	0.045853443
128	0x3e015aba	0.12632266
129	0x3e4d9f3e	0.20080277
130	0xbdb7d5f0	-0.08976352
131	0xbe528b9c	-0.20561069
132	0xbe594896	-0.21219096
133	0xbdfe7ea9	-0.12426502
134	0x3dd8b620	0.105816126
135	0x3e50a07a	0.20373717
136	0xbe343c5c	-0.1760115
137	0xbd8ebdb2	-0.06969775
138	0x3e2ffb20	0.1718564
139	0xbde4a859	-0.11164922
140	0x3d3a1557	0.045430508
141	0xbdbc97aa	-0.09208615
142	0xbe873eea	-0.26415187
143	0xbe4493b4	-0.1919697
144	0x3db37571	0.087626345
145	0x3d1c74f2	0.038197465
146	0xbd890fbb	-0.066924535
147	0x3c480d8a	0.012210259
148	0x3d83481c	0.06410238
149	0xbd4296cd	-0.047507096
150	0xbdb39c39	-0.087700315
151	0xbdd4292e	-0.10359417
152	0x3c1d2784	0.009591941
153	0xbcdef1af	-0.027214853
154	0xbd8d5bf3	-0.069023035
155	0xbe6fb481	-0.234087
156	0xbd8e9831	-0.06962622
157	0xbd36d28c	-0.044634387
158	0xbc911257	-0.01770894
159	0x3e3f17d6	0.18661436
160	0x3b9c8fff	0.004777908
161	0xbdce295d	-0.10066483
162	0xbc80538b	-0.015664836
163	0xbe56b18f	-0.2096617
164	0xbdbfb907	-0.09361463
165	0xbe12111c	-0.14264339
166	0xbda4b598	-0.08042449
167	0x3e3029cd	0.17203446
168	0x3d235b56	0.039882027
169	0xbc47874b	-0.012178252
170	0x3da2bc1a	0.07946034
171	0xbda9fafb	-0.08299824
172	0xbd9705b3	-0.07374134
173	0x3d98b6c4	0.07456735
174	0x3e10754f	0.1410725
175	0xbde3f949	-0.11131532
176	0x3d84e434	0.06488839
177	0xbdb07999	-0.08616943
178	0xbce4542b	-0.027872166
179	0xbc8c8f8b	-0.01715829
180	0xbdd1359f	-0.102153055
181	0xbdafd917	-0.085863285
182	0xbdbb97ea	-0.09159835
183	0xbd449990	-0.04799801
184	0xbdb922f7	-0.09039872
185	0xbe1c997b	-0.15292923
186	0x3d1a2c7e	0.037640087
187	0x3e673b5d	0.22581239
188	0xbe482ed3	-0.19549112
189	0xbd82d858	-0.063889205
190	0x3e6917b3	0.22762947
191	0x3e61f9c9	0.22067942
192	0x3c123427	0.008923567
193	0xbd01b730	-0.03166884
194	0xbdec377c	-0.1153402
195	0xbda1a0f0	-0.078920245
196	0xbdab550f	-0.08365833
197	0xbdb2fd36	-0.087397024
198	0xbd592a54	-0.053018883
199	0xbb0bcc77	-0.0021331587
200	0x3e1229ba	0.1427373
201	0x3d163d3e	0.0366795
202	0xbc369cf0	-0.011145815
203	0xbdaf8b72	-0.08571519
204	0x3c955c69	0.018232541
205	0x3e82a765	0.25518337
206	0xbc7aa4a0	-0.015298039
207	0xbe808b1d	-0.25106135
208	0x3ce4a841	0.027912261
209	0x3dbb11eb	0.09134277
210	0xbe14aef1	-0.1451986
211	0xbe366df3	-0.1781538
212	0xbd07bf1f	-0.03314125
213	0x3e12c9f0	0.14334846
214	0xbdbc4555	-0.091929115
215	0x3e38e199	0.18054809
216	0xbe0a82b1	-0.13526417
217	0xbced3e42	-0.02896035
218	0xbe2e13eb	-0.16999786
219	0xbdb112d4	-0.08646169
220	0x3dd9d512	0.10636343
221	0x3d9767dc	0.073928565
222	0xbdcb9074	-0.099396616
223	0xbe1e97a5	-0.15487535
224	0x3db5eadc	0.088826865
225	0xbd06f24d	-0.03294592
226	0xbe211e84	-0.15734297
227	0xbc957ff6	-0.018249493
228	0x3d75dba1	0.060023908
229	0xbdb181ca	-0.086673334
230	0xbdd7c8a7	-0.10536318
231	0x3d5c4d4d	0.053784657
232	0x3d40d949	0.04708222
233	0xbe22ae39	-0.15886773
234	0xbddf611f	-0.10907196
235	0xbdaba6d9	-0.08381433
236	0xbcf0d3c1	-0.029397847
237	0x3d0b1191	0.0339523
238	0x3daa139b	0.08304521
239	0xbe1c94e1	-0.15291168
240	0xba2897ab	-0.00064312917
241	0xbe1a285c	-0.15054458
242	0xbc55b095	-0.013042589
243	0xbd813336	-0.06308596
244	0x3c2ccab4	0.010546375
245	0xbd66a23f	-0.056307074
246	0xbe1279bd	-0.14304252
247	0xbe9e33a7	-0.30898783
248	0xbd0b48f8	-0.034005135
249	0x3baa4ad0	0.0051969066
250	0xbe0142b9	-0.12623109
251	0x3d62a041	0.05532861
252	0xbdd47653	-0.10374131
253	0xbe0560ee	-0.13025257
254	0x3dd6d65b	0.10490104
255	0xbe1693dd	-0.14704843

fc2.weight f4 [128, 256]
0	0x3db75422	0.08951594
1	0xbd7ef905	-0.062249202
2	0x3d7b6c3e	0.061382525
3	0x3dd9629a	0.1061451
4	0xbdada92e	-0.08479534
5	0xbd1a3e9d	-0.03765737
6	0x3d53f128	0.051743656
7	0x3c8b966b	0.017039498
8	0xbcfbb248	-0.03072466
9	0xbda52abd	-0.08064792
10	0x3e024537	0.12721716
11	0x3ccbf94b	0.024899146
12	0xbda37e77	-0.07983106
13	0x3b4f9fc1	0.0031680914
14	0x3caadbde	0.020856794
15	0xbd9ff259	-0.07809896
16	0xbd87c271	-0.06628884
17	0xbd63d298	-0.05562076
18	0xbc580538	-0.013184838
19	0xbe615a90	-0.22007203
20	0xbe4b5a44	-0.19858652
21	0x3d050e38	0.032484263
22	0xbb027e0f	-0.0019911563
23	0x3d4bf1a3	0.04979099
24	0xbd867e58	-0.06567067
25	0xbdd298b9	-0.10283036
26	0xbda0db0c	-0.0785428
27	0x3e040216	0.1289142
28	0xbe104980	-0.14090538
29	0xbe54071e	-0.2070584
30	0xbdf90d9c	-0.12160799
31	0xbd8ab084	-0.06771949
32	0xbdc4ab0b	-0.09602936
33	0x3dcb914a	0.09939821
34	0xbc8acf70	-0.016944617
35	0xbcef668f	-0.029223708
36	0xbe2e2e18	-0.17009771
37	0xbcc1e099	-0.023666667
38	0xbd41c38c	-0.04730563
39	0xbd445bc0	-0.047939062
40	0xbe4e2a91	-0.20133425
41	0x3d6ae1b6	0.05734416
42	0xbe5b5fd8	-0.2142328
43	0x3d908b37	0.07057803
44	0x3c35efd8	0.0111045465
45	0xbd94e46d	-0.07270131
46	0xbd9c5310	-0.076330304
47	0x3da7b5c7	0.08188968
48	0x3dd47cef	0.10375392
49	0x3e2f665e	0.17128894
50	0xbdeea155	-0.116518654
51	0xbdc0705e	-0.09396432
52	0x3d83c363	0.064337514
53	0xbd209da4	-0.039212838
54	0x3d0f27bb	0.03495
55	0x3cfb52f7	0.03067921
56	0xbb859280	-0.004076302
57	0x3c333a1f	0.01093915
58	0xbd147b52	-0.03625042
59	0xbd8c37cf	-0.06846582
60	0xbe33dc25	-0.17564447
61	0xbd8476ac	-0.06467947
62	0x3e3f3080	0.18670845
63	0x3d24840e	0.040165
64	0xb83d2622	-4.5096625e-05
65	0x3ddd89cd	0.10817299
66	0xbe33ccfd	-0.17558666
67	0xbd7a60fa	-0.06112764
68	0xbd21b0b6	-0.039475165
69	0x39f4b4e3	0.00046674078
70	0x3d79e441	0.061008696
71	0xbd2319f9	-0.03981969
72	0x3de75cba	0.11296983
73	0x3e5f4ec2	0.21807387
74	0x3c447109	0.01198984
75	0x3d9741a0	0.07385564
76	0x3b86b9a4	0.0041114856
77	0xbcb23720	-0.021754801
78	0xbc5e9c72	-0.013587104
79	0xbdfaa0fe	-0.12237738
80	0xbeb8e9b8	-0.36115813
81	0xbdab793d	-0.08372734
82	0xbc42624f	-0.011864259
83	0xbd8c7b1b	-0.06859418
84	0x3ee19366	0.4405777
85	0xb98ab010	-0.00026452588
86	0xbde366ee	-0.11103617
87	0xbcf6f8f5	-0.030148009
88	0xbb03274e	-0.002001244
89	0x3e0a6468	0.13514864
90	0xbd62fe02	-0.055418022
91	0x3b93f2e3	0.0045150383
92	0xbce263c7	-0.027635468
93	0xbd570b17	-0.05250081
94	0xbe4a1a96	-0.19736704
95	0x3cb1aae4	0.021687932
96	0x3d077879	0.033073876
97	0x3c7b5acf	0.015341475
98	0xbd08b64f	-0.033376988
99	0xbd14aac5	-0.03629567
100	0x3d484a86	0.048899196
101	0x3dbcda16	0.09221284
102	0xbd1a73e7	-0.03770819
103	0xbdf636e3	-0.120221876
104	0x3db74d29	0.08950264
105	0x3e1d3435	0.15351947
106	0x3da57186	0.080782935
107	0x3caddeee	0.021224465
108	0x3cf4239f	0.029802142
109	0x3dd3ef37	0.10348361
110	0x3d24341f	0.04008877
111	0x3dfc9d53	0.12334695
112	0xbe07ea57	-0.13272987
113	0xbe6a4529	-0.22877945
114	0xbda4d819	-0.0804903
115	0x3cf95c02	0.03043938
116	0xbda80748	-0.08204514
117	0xbdea761e	-0.1144831
118	0xbd2a3e2b	-0.041563194
119	0x3d7f7d34	0.062375262
120	0xbd1001c1	-0.035157923
121	0xbcf246a1	-0.029574694
122	0xbe518610	-0.20461297
123	0xbe5917cc	-0.21200484
124	0x3e0f31f6	0.13983902
125	0x3e08451d	0.13307615
126	0x3d8da0ea	0.069154575
127	0x3d83a906	0.06428723
128	0x3cebc973	0.028782582
129	0xbde59bb7	-0.11211341
130	0x3d840fb9	0.06448311
131	0xbd908096	-0.07055776
132	0xbcc43c53	-0.023954546
133	0x3d29b86f	0.041435655
134	0x3c76a55f	0.015054076
135	0xbdad7a9f	-0.08470654
136	0xbc1728c1	-0.009226025
137	0xbd97e91e	-0.074175104
138	0xbdc4e668	-0.09614259
139	0xbdc64211	-0.0968057
140	0xbe05dd34	-0.13072664
141	0xbd449f75	-0.048003633
142	0x3d37029a	0.044680215
143	0xbd9ccb2d	-0.0765594
144	0x3e286f1f	0.1644864
145	0x3b5afb7a	0.0033414052
146	0x3dee9d12	0.116510525
147	0xbdbdb701	-0.09263421
148	0x3de4b3c6	0.111671016
149	0xbc805706	-0.015666496
150	0x3da337ee	0.07969652
151	0xbe2d2128	-0.1690718
152	0x3dfcbfc2	0.123412624
153	0x3d8e31f8	0.069431245
154	0xbb7e517a	-0.0038805888
155	0xbc5888fe	-0.013216255
156	0xbd3d66f4	-0.046240762
157	0xbd664d94	-0.056226328
158	0x3d6f16e6	0.058371447
159	0xbcc47072	-0.0239794
160	0xbdc7c3e6	-0.097541615
161	0x3d543be2	0.05181492
162	0x3dce6a96	0.100789234
163	0x3c3cee4f	0.011531427
164	0xbbe60319	-0.0070194122
165	0x3e086103	0.13318257
166	0xbd9f7353	-0.07785668
167	0xbe14d016	-0.14532503
168	0x3b962874	0.004582459
169	0xbdd679f6	-0.10472481
170	0xbc31787e	-0.01083195
171	0xbe17d857	-0.14828621
172	0xbd299369	-0.041400347
173	0xbd7b334c	-0.061328217
174	0xbe363634	-0.17794114
175	0xbda27811	-0.07933057
176	0xbc50db3f	-0.012747585
177	0xbcd538d0	-0.026028067
178	0x3d7d043d	0.06177162
179	0xbd5193e6	-0.051166438
180	0x3de05961	0.10954548
181	0x3de5ff18	0.11230296
182	0x3dba427b	0.090947114
183	0x3df0926c	0.11746678
184	0xbdbeafac	-0.093108505
185	0x3d63b81a	0.055595495
186	0x3d0d8e0d	0.0345593
187	0xbe43c4d2	-0.1911805
188	0xbcc1a3be	-0.023637649
189	0x3dc3745a	0.09543677
190	0xba42d878	-0.0007432769
191	0xbe188f7b	-0.14898483
192	0xbdf1f927	-0.118151
193	0x3e0f4b43	0.13993554
194	0xbdb67037	-0.08908122
195	0xbc744d6d	-0.014911038
196	0x3e4f88d3	0.20267038
197	0x3e04751f	0.12935303
198	0x3cc3db82	0.02390838
199	0xbe7a143a	-0.24421778
200	0xbc8a3d6d	-0.016874993
201	0xbd0174df	-0.031605598
202	0x3d96797a	0.073473886
203	0x3d68657b	0.056737404
204	0xbbbaae5a	-0.005697054
205	0xbe8ef61d	-0.27922145
206	0xbe422381	-0.18958856
207	0x3da79581	0.081828125
208	0x3c8a9ebb	0.016921392
209	0x3dfd8e72	0.12380685
210	0x3abbae7a	0.0014318966
211	0x3d803444	0.06259969
212	0x3cce35ca	0.025172133
213	0x3e946108	0.2898028
214	0x3d017c80	0.031612873
215	0xbd46c269	-0.048525248
216	0x3e277492	0.16353062
217	0x3c1366c6	0.008996671
218	0x3e6568a0	0.22403193
219	0xbdc9b56b	-0.09849056
220	0x3e18f7b7	0.14938246
221	0xbdefc5b8	-0.11707634
222	0x3da514e4	0.08060625
223	0x3d0d001c	0.034423932
224	0x3ba13937	0.0049201506
225	0x3c30cfa3	0.010791692
226	0x3d304cff	0.04304218
227	0xbc44571b	-0.011983658
228	0x3dadf592	0.084941044
229	0xbdc681c2	-0.09692718
230	0x3d740599	0.05957565
231	0xbcd9a200	-0.026566505
232	0xbd1a3a33	-0.03765316
233	0x3cb1b8fe	0.021694656
234	0xbd8d2d65	-0.06893424
235	0x3d269a98	0.040674776
236	0xbd7cab1b	-0.061686616
237	0x3d01347c	0.031544194
238	0xbda19a18	-0.07890719
239	0x3d990e94	0.07473484
240	0x3d0766be	0.033056967
241	0xbe8f1a0b	-0.27949557
242	0xbcccb36c	-0.024987899
243	0xbd36b60f	-0.04460722
244	0x3da0a0c9	0.07843167
245	0xbd9d16e1	-0.076703794
246	0x3de1d79a	0.11027451
247	0x3e0da9e0	0.13834333
248	0x3cf8d86e	0.03037664
249	0xbb95cb59	-0.00457136
250	0x3bda6729	0.0066651297
251	0xbc2b7a27	-0.010466135
252	0xbc921e36	-0.017836671
253	0x3d351c9f	0.04421675
254	0xbdb28de7	-0.08718472
255	0x3e9befd0	0.304564

fc2.bias f4 [128]
0	0xbd26b7eb	-0.04070274
1	0xbd8086a7	-0.06275683
2	0xbd245dd2	-0.040128537
3	0x3d129a50	0.035791695
4	0xbda64f5b	-0.081206046
5	0x3d459595	0.048238356
6	0xbd729373	-0.05922265
7	0x3cf5f0ea	0.030022103
8	0x3de27fb5	0.110595144
9	0x3d7e1937	0.062035765
10	0xbd43fda7	-0.047849324
11	0x3d013089	0.031540427
12	0xbe341ec3	-0.1758986
13	0xbc80565c	-0.01566618
14	0xbc6ff36d	-0.01464544
15	0xbe0ce81b	-0.13760416
16	0xbd6602e4	-0.0561551
17	0xbcfbe7b9	-0.030750142
18	0x3bec3819	0.007208836
19	0x3c2f1df2	0.010688292
20	0xbe3d4e9d	-0.1848702
21	0x3d90137b	0.070349656
22	0x3d6ae417	0.05734643
23	0xbd23023a	-0.039797045
24	0xbd4f8e6d	-0.050672937
25	0x3d078cc4	0.03309323
26	0xbd22ab45	-0.039714117
27	0xbd979d37	-0.07403033
28	0xbd94f04b	-0.07272395
29	0xbe113483	-0.14180188
30	0x3c2bd722	0.010488303
31	0xbd41c011	-0.04730231
32	0xbd69e6cc	-0.05710487
33	0x3e11cd9f	0.14238594
34	0xbd6ee801	-0.058326725
35	0xbdbdac62	-0.09261395
36	0xbdb956ac	-0.090497345
37	0xbd9b2ff9	-0.075775094
38	0xbd95488a	-0.07289226
39	0x3d845598	0.06461638
40	0xbcc78508	-0.024355426
41	0x3dbd6f5f	0.09249758
42	0x3c08591b	0.008322026
43	0xbe44288f	-0.19156097
44	0xbd2458fb	-0.04012392
45	0xbd3211ab	-0.04347388
46	0xbe05131f	-0.12995575
47	0xbbe222dd	-0.0069011287
48	0xbd9ccc8d	-0.076562025
49	0xbd0fef9e	-0.035140626
50	0x3df5a496	0.11994283
51	0xbc46947b	-0.012120361
52	0x3cb4c036	0.02206431
53	0xbc8729de	-0.016499456
54	0xbd1e9ac2	-0.038721807
55	0xbd821339	-0.06351323
56	0xbc84e081	-0.016220333
57	0x3d8b2f99	0.06796188
58	0xbd8eb004	-0.06967166
59	0x3c27c601	0.010240079
60	0xbd8c042e	-0.06836735
61	0x3ce9276d	0.028461182
62	0x3c85969a	0.016307164
63	0xbd8b5bb8	-0.06804603
64	0x3c7d2c2d	0.015452427
65	0x3cf0f3bd	0.029413098
66	0xba61add2	-0.000860897
67	0xbd373cc4	-0.044735685
68	0x3d268a50	0.04065925
69	0x3ddbd3ee	0.10733782
70	0xbd2a8faf	-0.041640934
71	0xbda0febc	-0.07861087
72	0xbc0596bf	-0.008153616
73	0xbb6343fe	-0.0034677978
74	0xbd34b588	-0.044118434
75	0xbd9d24df	-0.07673048
76	0x3c82e096	0.015976232
77	0x3dbc946b	0.09207996
78	0xbdd2451a	-0.10267086
79	0x3dcd84cb	0.10035094
80	0xbbaca5e3	-0.0052687987
81	0x3de7a0f5	0.11309997
82	0xbd9be36b	-0.07611736
83	0xbe211205	-0.1572953
84	0xbd29b217	-0.041429605
85	0xbd52bcd1	-0.0514496
86	0xbe137dff	-0.14403532
87	0xbd8c1505	-0.06839947
88	0xbc69f5e2	-0.014279814
89	0x3dba4dac	0.09096846
90	0xbd4e8aae	-0.050425224
91	0x3d06ea7d	0.03293847
92	0xbbe9ae8b	-0.007131403
93	0x3ad52cca	0.0016263959
94	0x3d286722	0.04111398
95	0x3da35fdb	0.07977267
96	0xbd91b2c5	-0.07114176
97	0xbdcc748e	-0.099831685
98	0x3da82a3d	0.08211181
99	0xbcb048ec	-0.021519147
100	0xbd853c79	-0.06505675
101	0x3cd54989	0.02603604
102	0x3d89a462	0.06720807
103	0x3ca84750	0.020541817
104	0x3cb1c32b	0.021699509
105	0x3ca5ea72	0.020253394
106	0x3deafbb0	0.11473787
107	0xbc759a6c	-0.01499043
108	0x3c8c007c	0.017090075
109	0x3c864a5f	0.016392885
110	0x3d44766e	0.047964506
111	0xbe0c558b	-0.13704507
112	0xbe049d88	-0.12950718
113	0x3caa3e1a	0.020781565
114	0xbda7ea6b	-0.081990086
115	0x3d71cb29	0.05903164
116	0x3c952642	0.01820672
117	0xbdadf85d	-0.08494637
118	0x3d0397d7	0.032127228
119	0xbba3e745	-0.0050019347
120	0xbd6ebce3	-0.058285605
121	0xbc9af0dc	-0.018913679
122	0xbd1b281b	-0.037880044
123	0x3c68d6e4	0.01421139
124	0xbd244c46	-0.040111803
125	0xbcb6ba8d	-0.022305751
126	0x3dac21be	0.08404873
127	0x3d28acc6	0.041180395

fc3.weight f4 [2, 128]
0	0xbe53b69a	-0.20675126
1	0x3e50d576	0.20393929
2	0xbd83ac8d	-0.06429396
3	0x3f564daa	0.83712256
4	0x3b8792a6	0.004137355
5	0x3de22f1c	0.11044142
6	0x3e0269c4	0.12735659
7	0xbee30be0	-0.44344997
8	0x3ced05e5	0.028933475
9	0xbce3e7aa	-0.027820427
10	0x3da030d2	0.07821812
11	0x3e38d581	0.18050195
12	0x3e7c25ec	0.24623841
13	0x3d5d8ea8	0.054091126
14	0x3f021f3e	0.5082892
15	0xbd8978cb	-0.067124926
16	0xbd9b538d	-0.075842954
17	0x3d586029	0.05282608
18	0xbc32f012	-0.010921495
19	0xbbe13cf0	-0.0068737194
20	0x3f60d43d	0.8782385
21	0xbcdf8bb9	-0.027288305
22	0x3ca07879	0.019588696
23	0x3e76ef07	0.24114619
24	0xbd1506bb	-0.03638337
25	0xbe39e6a0	-0.18154383
26	0xbdc2e2e9	-0.09515936
27	0xbe1fb4ab	-0.15596263
28	0xbc8c969f	-0.017161665
29	0x3e03874e	0.12844583
30	0xbe2da312	-0.16956738
31	0x3bc9ec05	0.006162169
32	0x3da5a935	0.08088914
33	0x3db688f5	0.08912841
34	0xbe7b1b22	-0.24522069
35	0x3e3edc78	0.1863879
36	0x3f018650	0.5059557
37	0x3e9cce3c	0.30626094
38	0x3cf2863c	0.029605024
39	0xbcb630f8	-0.022240147
40	0xbe776fbe	-0.2416372
41	0x3c9bef10	0.019034892
42	0x3ee747db	0.4517201
43	0xbe106be1	-0.14103653
44	0xbe2f51af	-0.17121004
45	0x3caf73d9	0.021417545
46	0x3d31f944	0.04345061
47	0x3e2d7958	0.1694082
48	0xbccab0e3	-0.02474255
49	0xbc0df9a3	-0.008665475
50	0x3cd8321b	0.02639108
51	0x3dd1e7c7	0.10249286
52	0x3c81185e	0.01575869
53	0xbe7b45f2	-0.24538401
54	0x3c13d72a	0.009023467
55	0xbe9656c6	-0.29363078
56	0xbe17c480	-0.14821053
57	0xbe08f288	-0.13373768
58	0xbd8b02d6	-0.0678765
59	0x3cfb8044	0.03070081
60	0x3de37b82	0.111075416
61	0xbf52da83	-0.8236467
62	0x3e1df56a	0.1542565
63	0x3b40c60b	0.0029414918
64	0xbecbbefb	-0.39794144
65	0xbd8b7525	-0.06809453
66	0xbc7bd8b5	-0.015371491
67	0xbde323ba	-0.11090799
68	0xbcc8c1f5	-0.024506548
69	0x3ddc29fb	0.10750195
70	0xb909091e	-0.00013068735
71	0x3db3cdce	0.087794885
72	0x3b96844e	0.0045934087
73	0xbd451f18	-0.048125356
74	0x3d8c8aab	0.06862386
75	0x3ded6bfe	0.115928635
76	0xbe06ae7d	-0.131525
77	0x3ce21c8b	0.027601501
78	0xbde51db9	-0.1118731
79	0xbc7b4fc6	-0.015338844
80	0xbd863204	-0.065525085
81	0xbdad7c3e	-0.08470963
82	0x3da5d441	0.08097125
83	0x3e834923	0.25641736
84	0xbdaa1857	-0.08305424
85	0x3ec38a4c	0.3819145
86	0xbf4ac922	-0.79213154
87	0xbef157a4	-0.47137177
88	0xbca1dab7	-0.019757612
89	0x3d3d3312	0.046191283
90	0xbc9bb454	-0.019006886
91	0x3da832de	0.08212827
92	0xbbebd68f	-0.0071972082
93	0xbdd50d3c	-0.10402915
94	0x3ebeb36e	0.3724627
95	0x3b872ba4	0.0041250754
96	0xbcd37807	-0.02581407
97	0x3e33aa6b	0.17545478
98	0xbdc109de	-0.0942571
99	0xbedbd6e1	-0.42937377
100	0xbe1d8994	-0.15384513
101	0xbdc39393	-0.09549632
102	0x3d88b8f7	0.06675904
103	0x3f766763	0.96251506
104	0x3e2d8118	0.16943777
105	0xbcab50c4	-0.020912535
106	0x3c9d6ae7	0.019216014
107	0xbd91068e	-0.07081328
108	0xbecbb676	-0.39787644
109	0xbcf4ea48	-0.02989687
110	0x3d0a298e	0.033731036
111	0xbe03b872	-0.12863329
112	0xbe3ad698	-0.18245924
113	0x3e37f33a	0.17963877
114	0x3dfe858d	0.124278165
115	0xbc9a2d3a	-0.018820394
116	0x3e2d0e7c	0.16900057
117	0x3d2b5187	0.041825797
118	0x3e53ba0f	0.20676444
119	0x3db313ad	0.08743987
120	0x3d27ff75	0.041015107
121	0x3e335d59	0.17516078
122	0xbd38b657	-0.045095768
123	0xbb8592bf	-0.0040763314
124	0x3e164cf7	0.14677797
125	0x3e7bc785	0.2458783
126	0xbcf541d7	-0.029938621
127	0x3cc138bb	0.023586622
128	0xbc3a14d2	-0.011357503
129	0xbeaecd58	-0.3414104
130	0xbd95e848	-0.07319695
131	0xbf003c44	-0.5009196
132	0x3f3fa034	0.74853826
133	0x3e521690	0.2051642
134	0xbd4ff9fd	-0.050775517
135	0x3c1fd4c5	0.009755318
136	0x3f483adc	0.7821481
137	0xbe23f755	-0.16012318
138	0xbda4067c	-0.08009049
139	0xbc8608da	-0.016361643
140	0xbe050334	-0.12989503
141	0xbd2a3d9e	-0.04156267
142	0xbe86fe76	-0.26366013
143	0x3ec49abb	0.383993
144	0x3e7276ce	0.23678133
145	0xbd898951	-0.06715644
146	0xbee44eb3	-0.44591293
147	0x3f49e4a9	0.7886453
148	0xbea8adcc	-0.32945096
149	0x3eb7ccd0	0.35898447
150	0x3efda363	0.49538717
151	0xbcff11d0	-0.031136423
152	0xbdd2b8f2	-0.10289182
153	0xbe1f2940	-0.1554308
154	0xbe23ba84	-0.15989119
155	0x3ed5a0a5	0.41724125
156	0xbf2a18a4	-0.6644385
157	0xbdd3d51a	-0.1034338
158	0x3c8e6700	0.017383099
159	0xbe1f18f9	-0.1553687
160	0x3d9ebbe3	0.0775068
161	0xbce70efe	-0.028205391
162	0x3d373916	0.044732176
163	0x3dade211	0.08490384
164	0x3d7ceaef	0.061747488
165	0xbd9b43f8	-0.075813234
166	0xbebdc526	-0.37064475
167	0xbe416033	-0.18884353
168	0xbd8223a6	-0.06354456
169	0x3f17ab56	0.5924581
170	0x3d2ac3dd	0.041690696
171	0xbb93485e	-0.004494711
172	0x3e3024e7	0.17201577
173	0x3eeefe8d	0.46678582
174	0x3e4287c3	0.18997101
175	0x3ce087fd	0.027408594
176	0xbe677b3f	-0.22605608
177	0xbe86500b	-0.26232943
178	0x3ec3dd93	0.38254985
179	0xbdabf65c	-0.08396599
180	0x3f087e41	0.5331765
181	0x3e257226	0.16156825
182	0x3efca61f	0.4934549
183	0x3e9cd07a	0.30627805
184	0xbc5cc7a4	-0.013475332
185	0x3c12fd8a	0.008971581
186	0x3c9b4a63	0.018956369
187	0xbe5dbc98	-0.21653974
188	0xbe119a1d	-0.14218946
189	0x3e03a7f2	0.12857035
190	0x3eec8e75	0.46202436
191	0xbe81fe28	-0.25389218
192	0x3ed9e83b	0.4255999
193	0xbef49777	-0.47771809
194	0xbe57bf6f	-0.2106912
195	0xbe34983a	-0.17636195
196	0xbe931fbb	-0.28735146
197	0xbe502b31	-0.20328976
198	0xbec1759a	-0.37785035
199	0xbec26b26	-0.37972373
200	0xbeac1c2e	-0.3361525
201	0xbbc6d8e3	-0.0060683354
202	0x3e285d5e	0.16441867
203	0x3eb25f9d	0.34838572
204	0xbf2d55e2	-0.6770917
205	0x3f850623	1.0392498
206	0x3e014949	0.12625612
207	0x3eedf00f	0.46472213
208	0xbea7bf79	-0.3276327
209	0x3f1ee99d	0.62075216
210	0xbea6a55f	-0.32548043
211	0x3df3c8ef	0.119035594
212	0xbd9e71a8	-0.07736522
213	0x3eca908a	0.395634
214	0xbdca7c7c	-0.09887025
215	0x3d43aa3d	0.047769774
216	0x3f6a1cdb	0.9145028
217	0x3f6eeefd	0.9333342
218	0x3ee21143	0.44153795
219	0x3de9ecbe	0.11422108
220	0x3f17468c	0.5909202
221	0x3e3ede0a	0.18639389
222	0xbe55c441	-0.20875646
223	0x3ecf72db	0.40517315
224	0x3f0c0471	0.5469428
225	0xbb92d10d	-0.004480487
226	0x3bd3399d	0.006446077
227	0xbd778901	-0.06043339
228	0x3e8d3bb6	0.27584618
229	0xbe8222cf	-0.25417182
230	0xbe5b72b4	-0.21430475
231	0xbcf1a966	-0.02949972
232	0xbdf4dc93	-0.11956134
233	0x3e9f9bef	0.31173655
234	0x3ee76d36	0.4520051
235	0x3c70a5be	0.0146879535
236	0x3e553873	0.20822315
237	0xbec1d70a	-0.37859374
238	0x3f095c40	0.5365639
239	0x3d817432	0.063209906
240	0x3d5995ad	0.053121258
241	0x3e445e3c	0.19176573
242	0x3e1ac843	0.15115456
243	0xbe2f6710	-0.17129159
244	0x3e848933	0.25885925
245	0xbc15f93f	-0.009153663
246	0x3d8b8476	0.06812374
247	0x3e35f70e	0.17770025
248	0x3ed41197	0.4141967
249	0x3d9e108c	0.07718
250	0xbe53d87b	-0.2068805
251	0x3ece5ef4	0.40306818
252	0xbc3024ed	-0.010750991
253	0xbd9c7d78	-0.07641119
254	0x3f060ca4	0.5236304
255	0x3f13059b	0.5743043

fc3.bias f4 [2]
0	0x3cd4a560	0.025957763
1	0xbdef54b7	-0.1168608
